models/discriminator.pth (torch, 635515 bytes, 13 tensors)

network.0.weight f4 [16, 3, 4, 4]
-0.10785672 -0.08033362 0.08940264 -0.119774066 0.12901412 0.038019557 -0.06542328 0.123749666
0.054934133 -0.063941635 0.12807521 -0.055411473 0.090404965 0.10417321 -0.09080891 0.09516929
-0.020708926 0.05334934 0.11801602 -0.14086387 0.04172583 0.018711764 -0.015503188 -0.12368093
0.051176276 0.09689834 -0.020128934 -0.04557154 -0.12957479 -0.033324677 -0.03999041 0.010053652
-0.032113176 0.013584023 0.13644302 -0.05422449 0.09322411 -0.024664277 0.07992187 -0.14004292
0.08834913 0.043567512 -0.07093424 -0.10346863 0.06244011 -0.12949467 0.1019646 -0.027229954
0.09550779 -0.03844175 -0.09182456 -0.0055368748 0.1139288 0.1291585 -0.12165455 0.12497733
0.033088725 -0.0545766 0.019727405 -0.13621971 0.13664484 -0.008497267 -0.031940855 0.12830184
0.04750134 -0.05078547 -0.043693088 0.047873892 0.05877957 0.079249635 0.0038890373 -0.027237043
-0.093715146 0.0986546 -0.14290948 -0.12222431 0.06399551 0.08687953 0.01254154 -0.02423472
0.036705405 -0.13381293 0.049992874 0.05654016 0.054835748 0.14430554 0.102100775 0.038956497
0.1305613 0.04435476 0.032002125 0.09677946 -0.05942954 0.08065507 0.091043144 -0.061627932
0.083737455 -0.12427551 0.034935057 -0.12387608 0.029397493 0.12734582 0.020865297 0.07754755
-0.10264589 -0.056106042 0.019415041 -0.13933764 -0.03279145 0.0696119 0.08865094 -0.11817334
0.0029939443 0.014034349 0.059893064 -0.13829356 -0.007952702 0.03990175 0.12190874 -0.03722435
-0.047145598 -0.06544202 -0.117135264 0.03894354 -0.070762485 -0.111146376 0.079398796 -0.016922094
-0.14384343 0.110819265 -0.032686252 0.032604177 0.13880931 0.08382108 0.059156578 0.039270237
0.11618886 0.11268512 0.12521721 -0.085318916 0.030389408 -0.042182866 0.10868646 -0.08623842
-0.1386437 -0.090281166 0.12398579 -0.105081074 -0.03543841 -0.081936106 -0.120121256 -0.058154806
0.021397766 -0.12967229 -0.008880711 -0.14410263 -0.08353446 0.122085035 -0.102849476 0.086578526
0.104694344 -0.12673904 0.1438652 -0.04415735 -0.060637034 0.1031291 0.01904278 0.10084335
-0.11273697 -0.008704449 0.095471315 -0.102873564 -0.08128094 -0.017972304 0.0970846 0.11222217
0.12320818 -0.0332563 -0.02487724 0.064339966 0.08237662 0.027923664 0.06850253 0.0861893
0.052899633 -0.10277355 0.045024257 -0.1242916 -0.0065917466 -0.073041044 0.10204632 0.015407778
0.07508402 -0.074871115 -0.12213757 -0.049108673 -0.0006308202 0.13219088 0.08197331 -0.1315918
0.13487968 -0.062354557 -0.04097716 0.12929355 0.04917576 -0.020256003 0.058521233 -0.14361876
-0.06410522 -0.06117215 0.09559747 0.14347202 0.13087802 0.0053323084 -0.023633115 -0.015814211
0.12036626 0.121461235 0.13913818 -0.025708515 -0.03034861 -0.115262866 0.10300504 0.13288854
0.11169068 0.13140287 -0.10220066 0.0627561 0.10892525 0.07145627 -0.0119772395 -0.082078144
-0.06991101 0.061830707 0.12025256 -0.06694608 0.024981821 -0.09560642 0.10568005 0.074482456
-0.10144361 -0.0044295583 0.060033932 0.13637985 -0.10545788 0.101767026 0.08094336 0.029924715
0.05922833 -0.06228998 -0.13833356 -0.010642266 0.093907595 -0.08383204 0.030590223 -0.06600661
00000000: fce3 dcbd f485 a4bd bb18 b73d 1b4c f5bd
00000010: 471c 043e 65ba 1b3d a4fc 85bd 7770 fd3d
00000020: 9d02 613d d5f3 82bd 2626 033e 24f7 62bd
00000030: 3d26 b93d c458 d53d 06fa b9bd 1ee8 c23d
00000040: c4a5 a9bc d684 5a3d 62b2 f13d 9e3e 10be
00000050: b4e8 2a3d 6a49 993c 1501 7ebc 6d4c fdbd
00000060: 379e 513d a372 c63d 6fe5 a4bc 39a9 3abd
00000070: 41af 04be 757f 08bd fccc 23bd 13b8 243c
00000080: 1b89 03bd 868f 5e3c b8b7 0b3e 801a 5ebd
00000090: 48ec be3d bd0c cabc 14ae a33d 6967 0fbe
000000a0: 63f0 b43d d973 323d f945 91bd 5ce7 d3bd
000000b0: 33c1 7f3d 409a 04be d1d2 d03d 5a11 dfbc
000000c0: 9799 c33d 1975 1dbd 840e bcbd ac6e b5bb
000000d0: 8153 e93d 2042 043e 0526 f9bd 1df4 ff3d
000000e0: 0b88 073d b78b 5fbd 5e9b a13c 2e7d 0bbe
000000f0: a0ec 0b3e 1f38 0bbc 6ad4 02bd 8f61 033e
00000100: c490 423d 6d04 50bd 86f7 32bd 6a17 443d
00000110: d9c2 703d a24d a23d 38df 7e3b 3820 dfbc
00000120: baed bfbd 6c0b ca3d dd56 12be bd50 fabd
00000130: 1410 833d e5ed b13d 087b 4d3c e487 c6bc
00000140: 6858 163d 4206 09be 54c5 4c3d a896 673d
00000150: 739b 603d d5c4 133e 361a d13d d990 1f3d
00000160: ddb1 053e 56ad 353d a914 033d 4f34 c63d
00000170: 646c 73bd 7c2e a53d d474 ba3d 926d 7cbd
00000180: 8b7e ab3d 2984 febd 1018 0f3d beb2 fdbd
00000190: 03d3 f03c f166 023e b3ed aa3c 40d1 9e3d
000001a0: 0238 d2bd 73cf 65bd 4b0c 9f3c 87ae 0ebe
000001b0: 5450 06bd af90 8e3d a08e b53d dd04 f2bd
000001c0: 0d36 443b 53f0 653c 6e52 753d d49c 0dbe
000001d0: 0d4c 02bc 0470 233d 4aab f93d 8f78 18bd
000001e0: be1b 41bd 7706 86bd 9de4 efbd 4383 1f3d
000001f0: eceb 90bd b6a0 e3bd d69b a23d 34a0 8abc
00000200: b14b 13be 36f5 e23d 05e2 05bd f58b 053d
00000210: 0724 0e3e 63aa ab3d 2b4e 723d d4d9 203d
00000220: 6df4 ed3d 75c7 e63d f138 003e afbb aebd
00000230: 35f3 f83c f1c7 2cbd 0297 de3d c59d b0bd
00000240: 9df8 0dbe 55e5 b8bd 43ec fd3d bf34 d7bd
00000250: de27 11bd 1ece a7bd 2202 f6bd bc33 6ebd
00000260: 5e4a af3c d0c8 04be 6780 11bc a48f 13be
00000270: 1d14 abbd b807 fa3d bfa2 d2bd 1550 b13d
00000280: fd69 d63d e1c7 01be 6651 133e 56de 34bd
00000290: 8a5e 78bd 5935 d33d 9bff 9b3c f586 ce3d
000002a0: a4e2 e6bd 1b9d 0ebc 7786 c33d 60af d2bd
000002b0: 9f76 a6bd a73a 93bc 4ad4 c63d bdd4 e53d
000002c0: 9254 fc3d c237 08bd 5bcb cbbc acc4 833d
000002d0: 13b5 a83d 2bc0 e43c 0e4b 8c3d 0484 b03d
000002e0: 49ad 583d f07a d2bd 5b6b 383d 988c febd
000002f0: 94ff d7bb 8b96 95bd a9fd d03d e870 7c3c
00000300: a7c5 993d 0756 99bd 4323 fabd 2d26 49bd
00000310: a15d 25ba 0c5d 073e 9fe1 a73d 00c0 06be
00000320: e61d 0a3e 7e67 7fbd abd7 27bd 8765 043e
00000330: 866c 493d ebef a5bc f6b3 6f3d cc10 13be
00000340: 9949 83bd a68f 7abd 9bc8 c33d 54ea 123e
00000350: e304 063e a5ba ae3b 3c9a c1bc ce8c 81bc
00000360: 9682 f63d abc0 f83d 3d7a 0e3e aa9a d2bc
00000370: a69d f8bc f00e ecbd 4ef4 d23d ef13 083e
00000380: 15be e43d 798e 063e 944e d1bd 4586 803d
00000390: 3414 df3d aa57 923d 2f3c 44bc 9618 a8bd
000003a0: 812d 8fbd 3242 7d3d f946 f63d 071b 89bd
000003b0: ada6 cc3c 4ccd c3bd c86e d83d 428a 983d
000003c0: abc1 cfbd d425 91bb 24e6 753d 29a7 0b3e
000003d0: 4dfa d7bd 3b6b d03d a2c5 a53d ad24 f53c
000003e0: 6899 723d c723 7fbd 50a7 0dbe e65c 2ebc
000003f0: a052 c03d 22b0 abbd 5998 fa3c 792e 87bd

network.0.bias f4 [16]
-0.108950324 0.11839318 -0.11965722 -0.14248738 -0.049978543 0.06110582 0.025431579 0.07409499
0.14034086 -0.015795128 0.012405163 0.086006545 -0.13834009 0.061115492 -0.019927671 0.016168404
00000000: 5921 dfbd 2078 f23d d80e f5bd 36e8 11be
00000010: 4db6 4cbd 194a 7a3d e355 d03c 1dbf 973d
00000020: 84b5 0f3e c964 81bc 063f 4b3c 3324 b03d
00000030: 06a9 0dbe 3d54 7a3d 5b3f a3bc 9a73 843c

network.2.weight f4 [64, 16, 4, 4]
0.009842373 0.0011061057 -0.024164848 0.0064819157 0.01052469 -0.016010486 0.026833571 -0.018492192
-0.020056501 0.008827031 -0.041659728 -0.045186155 0.01731819 -0.05465267 -0.04532598 -0.06162773
-0.04418899 0.059939213 0.009584926 0.0114666 0.051858574 -0.04069209 -0.048773214 0.050317854
-0.019913368 0.004646465 -0.056134798 0.017158933 0.032418765 -0.053074546 -0.0027149543 0.03810209
-0.05391393 0.057753734 0.0031016394 -0.03720554 0.017631762 0.0022386909 0.026317507 -0.026496395
0.058977067 -0.032557428 0.039576046 0.05907736 0.06062381 0.059102714 -0.03254371 -0.043729722
0.040867984 -0.02231165 -0.0043042377 0.0544677 -0.0525079 -0.057576023 -0.02400601 0.0028299913
0.019901134 -0.021186374 -0.02599717 -0.025644697 -0.022067398 0.055249125 -0.018239371 -0.012524962
0.018089466 -0.045535974 -0.02581013 -0.04973486 0.04158514 0.034459077 0.061219215 0.061231077
0.04276938 -0.062032424 -0.034577347 -0.034425937 0.006306395 -0.057960704 0.05972687 -0.025600538
-0.021321438 -0.048153862 -0.010909237 0.0024644136 0.02374351 -0.053253494 -0.037976682 -0.03179075
0.019639336 -0.057814017 0.008019716 0.059095547 0.057138108 0.0061729327 -0.024205334 0.00050672144
-0.05141405 -0.005995773 0.060557723 -0.003672801 -0.011938155 -0.002382353 0.017003186 0.031967327
-0.035154134 0.0049849674 0.037368238 -0.0046745315 -0.032838523 -0.038321376 -0.016141735 0.039181486
-0.029700652 0.015177548 -0.056868926 -6.5259635e-05 0.041579716 -0.030224852 0.03059712 0.061329298
-0.007998049 0.03084772 0.05283781 -0.008889712 -0.049806915 0.038007095 0.037617154 -0.023433551
0.033817396 -0.019194886 0.031456895 0.02991563 -0.035368398 0.018836133 0.007784687 0.015205331
0.05440452 0.036845736 0.057147525 -0.050615594 -0.059640355 0.039266184 0.010052927 -0.0078079402
0.05289889 0.031702198 -0.0258471 0.0021018535 0.018339649 0.005128868 -0.024761349 -0.049302205
-0.048178077 -0.050513 -0.008009136 0.06148123 0.015091203 0.025691517 0.041319452 -0.006285578
0.026849702 0.053958863 -0.047199003 -0.030077964 -0.061075144 0.042830132 -0.032168806 -0.03464865
-0.05979731 -0.046021223 0.009268425 0.059918202 0.031924225 -0.03510072 -0.03605254 -0.059180997
0.015114076 0.031949006 0.0031737909 0.033991247 0.06139259 0.019962229 0.06074638 -0.043261103
0.04262629 -0.025825769 0.047961846 -0.024727777 0.0140989795 -0.019583866 -0.035496995 -0.018081047
0.007954001 -0.042491607 0.031256095 0.013106145 0.027882993 0.05259388 0.013669379 0.04946369
0.044103287 -0.059403196 -0.043473184 0.03578738 -0.048031874 0.060157485 0.029665053 -0.020163417
-0.03220793 0.028831907 -0.050326206 0.05364147 0.020564355 0.03129948 -0.016337581 -0.015422277
-0.05553609 -0.009948291 0.039072566 0.015447147 -0.0022469163 0.006459333 0.040793926 0.05090139
0.010956101 -0.061766118 0.035383612 0.026855655 -0.055724725 0.039086074 -0.06109619 -0.024633072
-0.06044343 -0.003058806 0.0008568764 -0.0615343 -0.05867874 -0.054929607 -0.030473351 0.023203015
-0.016783267 -0.02446618 0.010091841 -0.016199514 0.015160263 0.022131413 0.01355277 0.022576675
-0.029775895 0.01736138 -0.017950118 -0.04708191 -0.05309903 0.05159861 -0.031217746 0.02566997
00000000: e841 213c c0fa 903a 5cf5 c5bc 4066 d43b
00000010: c06f 2c3c 6c28 83bc 14d2 db3c f07c 97bc
00000020: 884d a4bc 409f 103c 64a3 2abd 1e15 39bd
00000030: e0de 8d3c 7adb 5fbd bca7 39bd 5c6d 7cbd
00000040: 84ff 34bd d282 753d 180a 1d3c 68de 3b3c
00000050: a869 543d c0ac 26bd 6cc6 47bd 181a 4e3d
00000060: 5c21 a3bc 6041 983b 9aed 65bd e490 8c3c
00000070: 8ac9 043d b264 59bd 60ed 31bb f010 1c3d
00000080: dad4 5cbd 2e8f 6c3d e044 4b3b d664 18bd
00000090: 7c70 903c 00b7 123b d097 d73c f80e d9bc
000000a0: f091 713d f05a 05bd 7e1a 223d 1afb 713d
000000b0: ac50 783d b015 723d 8e4c 05bd f01d 33bd
000000c0: 3065 273d ecc6 b6bc 900a 8dbb 8619 5f3d
000000d0: 8612 57bd d6d4 6bbd 40a8 c4bc 6077 393b
000000e0: b407 a33c 0c8f adbc 04f8 d4bc d414 d2bc
000000f0: b0c6 b4bc e84c 623d bc6a 95bc 8035 4dbc
00000100: 5c30 943c ee83 3abd c46f d3bc c8b6 4bbd
00000110: 2e55 2a3d f624 0d3d 00c1 7a3d 70cd 7a3d
00000120: f22e 2f3d b615 7ebd faa0 0dbd 3602 0dbd
00000130: e0a5 ce3b 3468 6dbd 2aa4 743d 38b8 d1bc
00000140: 4caa aebc fc3c 45bd a8bc 32bc 0082 213b
00000150: c081 c23c 5620 5abd 708d 1bbd 0437 02bd
00000160: ace2 a03c 64ce 6cbd 2065 033c 2c0e 723d
00000170: a609 6a3d 5046 ca3b 444a c6bc 80d5 043a
00000180: 8a97 52bd 3078 c4bb 600b 783d 60b3 70bb
00000190: 4098 43bc 4021 1cbb 444a 8b3c 2cf0 023d
000001a0: c8fd 0fbd f058 a33b 700f 193d d02c 99bb
000001b0: b081 06bd e0f6 1cbd ac3b 84bc c47c 203d
000001c0: c84e f3bc 40ab 783c 64ef 68bd 00dc 88b8
000001d0: 7e4f 2a3d 1c9a f7bc d0a6 fa3c 6e34 7b3d
000001e0: 400a 03bc 5cb4 fc3c 766c 583d 28a6 11bc
000001f0: 5602 4cbd 54ad 1b3d 7214 1a3d b8f7 bfbc
00000200: 1c84 0a3d 983e 9dbc f2d8 003d a011 f53c
00000210: 74de 10bd 3c4e 9a3c b016 ff3b c81f 793c
00000220: 46d7 5e3d 8eeb 163d 8613 6a3d 4c52 4fbd
00000230: 7249 74bd 94d5 203d 08b5 243c c0d9 ffbb
00000240: 82ac 583d 2ada 013d 4cbd d3bc 40bf 093b
00000250: 083d 963c 1010 a83b 50d8 cabc 1cf1 49bd
00000260: 6056 45bd b8e6 4ebd c038 03bc bed3 7b3d
00000270: 1841 773c 0477 d23c 963e 293d 40f7 cdbb
00000280: e8f3 db3c f803 5d3d be53 41bd 1066 f6bc
00000290: ee29 7abd a66e 2f3d 70c3 03bd beeb 0dbd
000002a0: 06ee 74bd c080 3cbd 98da 173c ca6c 753d
000002b0: fac2 023d c6c5 0fbd d4ab 13bd c667 72bd
000002c0: 08a1 773c f6dc 023d 60ff 4f3b 683a 0b3d
000002d0: cc76 7b3d d487 a33c 32d1 783d 8e32 31bd
000002e0: e898 2e3d 9090 d3bc a473 443d e891 cabc
000002f0: 68ff 663c 586e a0bc 4c65 11bd b41e 94bc
00000300: 8051 023c ae0b 2ebd 6406 003d 28bb 563c
00000310: e06a e43c ae6c 573d 88f5 5f3c 709a 4a3d
00000320: a6a5 343d c450 73bd f010 32bd ca95 123d
00000330: 12bd 44bd b267 763d 2004 f33c c02d a5bc
00000340: 76ec 03bd e430 ec3c da22 4ebd 28b7 5b3d
00000350: 9476 a83c e233 003d 64d6 85bc b8ad 7cbc
00000360: d079 63bd 28fe 22bc 8e0a 203d 0816 7d3c
00000370: 0041 13bb d0a8 d33b 8817 273d fa7d 503d
00000380: 3881 333c 78fe 7cbd 68ee 103d 6400 dc3c
00000390: 9c3f 64bd b818 203d 0040 7abd 4ccb c9bc
000003a0: 8893 77bd 4076 48bb 00a0 603a 640b 7cbd
000003b0: 1e59 70bd defd 60bd 40a3 f9bc 4014 be3c
000003c0: 107d 89bc 4c6d c8bc 4058 253c d8b4 84bc
000003d0: c062 783c f04c b53c 700c 5e3c b8f2 b83c
000003e0: 94ec f3bc 7439 8e3c 200c 93bc f6d8 40bd
000003f0: 5e7e 59bd 1059 533d 5cbc ffbc d449 d23c

network.2.bias f4 [64]
-0.011954255 -0.031615116 0.030418418 -0.004556924 -0.01251936 0.032511592 -0.025930747 -0.03178437
-0.00010918826 -0.023112081 0.0034781396 -0.013976455 -0.0036284477 -0.045640677 -0.0042481646 0.050018825
0.03160824 -0.045495316 0.03109271 -0.0008781105 -0.04656607 -0.038227126 0.058666036 0.014714174
0.013366014 0.047238834 0.03200478 -0.0048238486 -0.053383566 0.025775366 0.04872197 0.0504006
0.027429432 -0.000113256276 0.052800454 0.005451165 0.009314753 -0.013552539 -0.059326164 0.01679761
-0.0046485215 0.059032455 -0.001470089 -0.0111911595 -0.0021679252 0.04567244 -0.025264353 0.028117433
0.001692541 -0.02052059 -0.01619748 0.05312585 -0.020258732 -0.014653601 0.0014148727 0.058443874
-0.04429464 -0.029066063 -0.005527489 -0.006327763 0.0418785 -0.0029834658 -0.05040683 0.008845381
00000000: c8db 43bc da7e 01bd 0c30 f93c 4052 95bb
00000010: 001e 4dbc e02a 053d b86c d4bc 5430 02bd
00000020: 00fc e4b8 8c55 bdbc 80f1 633b 80fd 64bc
00000030: 40cb 6dbb b8f1 3abd 3034 8bbb 8ae0 4c3d
00000040: a477 013d 4c59 3abd 24b6 fe3c 0031 66ba
00000050: 10bc 3ebd 0c94 1cbd cc4b 703d b813 713c
00000060: 20fd 5a3c 827d 413d 7217 033d 6011 9ebb
00000070: baa8 5abd dc26 d33c b090 473d dc70 4e3d
00000080: b0b3 e03c 0084 edb8 4a45 583d b09f b23b
00000090: e89c 183c 780b 5ebc feff 72bd 249b 893c
000000a0: a052 98bb 04cc 713d 00b0 c0ba 205b 37bc
000000b0: c013 0ebb 0613 3b3d 30f7 cebc 8856 e63c
000000c0: 40d8 dd3a cc1a a8bc 94b0 84bc 7e9a 593d
000000d0: a4f5 a5bc a815 70bc 4073 b93a d862 6f3d
000000e0: 4c6e 35bd f41b eebc f01f b5bb 2059 cfbb
000000f0: ca88 2b3d 4086 43bb 6477 4ebd 38ec 103c

network.4.weight f4 [128, 64, 4, 4]
0.015197784 0.014642075 0.026627246 0.010360669 -0.019781858 -0.0027470626 0.013835449 -0.027464274
-0.006156709 -0.0027137622 -0.0051268227 0.0029216446 -0.009391263 0.016760994 0.0006667562 -0.009021554
0.009543255 0.02257622 -0.023965858 0.010659467 0.018669583 0.019073103 0.0022928603 -0.0024668723
0.02282374 -0.007711947 -0.02218448 0.002155196 0.0018232204 -0.028930534 -0.02079929 0.02565008
0.018821668 0.009879775 0.018793229 -0.022337172 -0.02326826 0.010687266 -0.016464557 -0.011960365
-0.004934795 0.012973931 0.009594031 -0.021329585 -0.017829236 -0.016762417 -0.019059144 -0.0007178895
-0.005485125 0.005321525 0.029527184 0.00037325174 -0.0309387 -0.0231191 0.015217852 0.0088737495
-0.023218166 0.0023881532 0.0044512004 0.027489427 0.010159936 0.030065559 -0.024625488 -0.0073248222
-0.02618048 0.03068759 -0.017706115 -0.0013696589 0.019310802 -0.029851567 0.015629992 -0.01532403
-0.02521041 -0.0058783665 -0.026752993 -0.009800479 0.008183509 -0.0126476735 -0.020195242 -0.025728527
-0.013381418 -0.024981756 -0.0085407235 0.008771498 -0.014916886 -0.010054514 -0.021700911 0.01669152
-0.0038013794 -0.02369995 -0.019278597 0.0236247 0.023579586 0.016722307 0.024731256 -0.010442436
0.008368414 -0.0033694617 -0.011195105 -0.016953688 0.0048734173 -0.01446994 -0.02454862 -0.0044325255
-0.015480112 0.016763624 -0.031151004 -0.007521283 -0.026763424 0.0117883235 0.018902175 -0.008362506
-0.015925866 0.00030318648 0.015715506 -0.021581821 -0.028966725 0.0022606216 0.012623951 -0.021022782
0.016740717 0.01511813 0.013060756 0.012213495 0.02227405 -0.030658353 -0.009573992 -0.0042372383
0.0058273673 -0.010856323 0.011641961 0.013410885 -0.025805213 -0.024490748 -0.022051282 -0.021105744
-0.0059396513 0.014605653 -0.016670186 -0.020833865 0.030104905 -0.021124743 0.027773105 0.026973374
0.02466464 0.024671279 -0.029125735 0.026103787 0.0008954555 -0.030299604 -0.00050551817 0.008237436
0.012050804 0.012736779 0.0008351095 -0.02536738 0.018950474 -0.01662007 0.011924673 0.013077784
-0.022989329 -0.016723875 0.028996848 -0.01882422 -0.023649972 -0.0038715228 -0.0019986145 0.013767485
-0.023240749 0.010927219 0.027019449 0.0149887465 0.016628098 -0.022584137 0.023934852 0.023842786
-0.020830758 -0.029684935 0.026762411 -0.012500294 0.013183009 0.028652854 0.022112649 -0.025903627
-0.019369204 -0.008436006 -0.0032989383 -0.014857259 -0.015974335 -0.025416564 0.008136217 0.004419107
-0.029788032 0.010197341 0.023687635 -0.008565843 -0.010766629 -0.020652574 0.011477672 -0.014551625
0.016871072 -0.0036957264 -0.02755925 0.03010811 -0.008178022 -0.029341664 -0.007430259 0.0009746477
0.019275762 0.018359158 0.007862445 -0.0057491884 0.02279555 0.005755972 0.015459396 0.02100477
-0.01580223 0.01864541 0.012643777 -0.009850532 0.010315716 -0.015787594 -0.021856163 0.025380634
0.01763479 -0.031122547 0.030843504 0.0036436655 -0.019854326 -0.0058067515 -0.028482921 -0.022842266
0.018918801 -0.01599351 -0.008885004 -0.013928521 -0.020114377 0.020396758 -0.020597864 -0.02074426
-0.0034556836 -0.017975137 0.013442539 0.013280179 -0.020820428 0.021456756 0.0010915175 0.022904322
-0.023572978 0.012623891 -0.02745254 -0.022130359 0.015611 0.022892155 0.0004457608 0.005757753
00000000: 2000 793c 50e5 6f3c 6221 da3c ccbf 293c
00000010: 900d a2bc 1008 34bb 14ae 623c c2fc e0bc
00000020: 38be c9bb 60d9 31bb e8fe a7bb 1079 3f3b
00000030: d0dd 19bc 5a4e 893c 40c9 2e3a 24cf 13bc
00000040: 505b 1c3c c4f1 b83c 0c54 c4bc 0ca5 2e3c
00000050: f4f0 983c 323f 9c3c d043 163b 40ab 21bb
00000060: daf8 ba3c 80b4 fcbb 3abc b5bc 303e 0d3b
00000070: 20f9 ee3a baff ecbc 4663 aabc 1e20 d23c
00000080: e62f 9a3c c8de 213c 42f4 993c 72fc b6bc
00000090: 149d bebc a419 2f3c aee0 86bc 68f5 43bc
000000a0: 10b4 a1bb 9c90 543c 4830 1d3c 62bb aebc
000000b0: 9e0e 92bc 5651 89bc ec21 9cbc c030 3cba
000000c0: 90bc b3bb 3060 ae3b fee2 f13c 00b1 c339
000000d0: 2873 fdbc 4464 bdbc 4c54 793c 3463 113c
000000e0: 0634 bebc 9082 1c3b 60db 913b 8231 e13c
000000f0: dc75 263c 0c4c f63c 64bb c9bc 1005 f0bb
00000100: 7278 d6bc 8a64 fb3c 6a0c 91bc 2086 b3ba
00000110: b031 9e3c 468b f4bc 780a 803c a411 7bbc
00000120: 1086 cebc 509f c0bb 1829 dbbc 3092 20bc
00000130: 2014 063c 3038 4fbc 7e70 a5bc a2c4 d2bc
00000140: bc3d 5bbc 8aa6 ccbc 64ee 0bbc 54b6 0f3c
00000150: f465 74bc b0bb 24bc 1cc6 b1bc a8bc 883c
00000160: 9020 79bb 6626 c2bc 26ee 9dbc 9688 c13c
00000170: fa29 c13c 38fd 883c 3499 ca3c c016 2bbc
00000180: ac1b 093c 30d2 5cbb ac6b 37bc 76e2 8abc
00000190: 30b1 9f3b 5413 6dbc 301a c9bc b83e 91bb
000001a0: 4ca0 7dbc de53 893c 6430 ffbc 1875 f6bb
000001b0: f83e dbbc d023 413c bcd8 9a3c e402 09bc
000001c0: f676 82bc 00f5 9e39 cebd 803c 5ccc b0bc
000001d0: a04b edbc f026 143b b0d4 4e3c f837 acbc
000001e0: d423 893c 08b2 773c c8fc 553c 1c1b 483c
000001f0: 1278 b63c 3a27 fbbc 3cdc 1cbc 88d8 8abb
00000200: 80f3 be3b b8de 31bc ecbd 3e3c 54b9 5b3c
00000210: 7465 d3bc d2a0 c8bc e4a4 b4bc f4e5 acbc
00000220: 68a1 c2bb 8c4c 6f3c ea8f 88bc c8ab aabc
00000230: 909e f63c cc0d adbc 6c84 e33c 44f7 dc3c
00000240: 800d ca3c 6c1b ca3c 1899 eebc 9cd7 d53c
00000250: 00bd 6a3a e036 f8bc c084 04ba 50f6 063c
00000260: bc70 453c ecad 503c 40eb 5a3a 40cf cfbc
00000270: 063e 9b3c d026 88bc b45f 433c 3444 563c
00000280: 1e54 bcbc 8200 89bc cc8a ed3c 4035 9abc
00000290: 96bd c1bc 60b9 7dbb 30fb 02bb 0491 613c
000002a0: 6263 bebc 1408 333c e457 dd3c 5c93 753c
000002b0: a637 883c 5e02 b9bc 0613 c43c f251 c33c
000002c0: 44a5 aabc d22d f3bc d83c db3c 08ce 4cbc
000002d0: 8cfd 573c 64b9 ea3c 9625 b53c d833 d4bc
000002e0: 2aac 9ebc 2c37 0abc 0033 58bb dc6b 73bc
000002f0: 9cdc 82bc 6636 d0bc c44d 053c 28ce 903b
00000300: 0806 f4bc c012 273c 920c c23c c057 0cbc
00000310: 8466 30bc 962f a9bc d80c 3c3c f069 6ebc
00000320: 3435 8a3c 0034 72bb f0c3 e1bc 48a5 f63c
00000330: 1cfd 05bc ee5d f0bc 8879 f3bb 807f 7f3a
00000340: 34e8 9d3c f265 963c 7cd1 003c b063 bcbb
00000350: bcbd ba3c 989c bc3b 6849 7d3c 3212 ac3c
00000360: ae73 81bc 42be 983c d827 4f3c 2064 21bc
00000370: 4003 293c fc54 81bc b20b b3bc 0ceb cf3c
00000380: d676 903c b6f4 febc 84ab fc3c 90ca 6e3b
00000390: 8aa5 a2bc 9046 bebb 0455 e9bc b41f bbbc
000003a0: 9afb 9a3c d204 83bc 6892 11bc 7434 64bc
000003b0: e8c6 a4bc 1a17 a73c dabc a8bc deef a9bc
000003c0: c078 62bb 9840 93bc 183e 5c3c 1c95 593c
000003d0: 9a8f aabc 14c6 af3c 4011 8f3a d8a1 bb3c
000003e0: 1e1c c1bc 70d4 4e3c 26e4 e0bc ba4a b5bc
000003f0: 48c5 7f3c 5488 bb3c 00b5 e939 88ab bc3b

network.4.bias f4 [128]
-0.030267138 -0.026441801 0.01207358 0.027963772 0.020322546 0.015511535 0.009156477 -0.016981415
0.030538429 0.005729262 -0.0036914125 -0.018386051 -0.017615031 0.027488168 -0.0020630956 -0.026026737
0.027552675 0.023379914 0.018396467 0.016074292 -0.00023526698 -0.024992574 -0.02465561 -0.0070379004
-0.019232742 -0.02372088 0.013561033 0.024219643 0.0088346265 -0.0024547242 -0.01497202 0.024181359
-0.008392304 -0.016558502 -0.0056030303 -0.004967116 0.004185207 -0.023433913 0.005608756 -0.027801096
0.014985058 0.008510083 -0.00021011382 0.0009181425 0.0095823705 -0.012365945 -0.029355828 -0.014439054
-0.0051131584 -0.018191822 -0.024037052 -0.013991822 0.0047460496 -0.0011380836 -0.00011013076 0.005261164
-0.0083896 -0.00049147755 -0.0040081814 -0.030710626 0.005401127 -0.026868813 -0.00193296 0.023494855
-0.00041845813 -0.014112812 0.018005744 -0.019453622 -0.03040471 0.0059729405 0.0064817406 -0.022997849
-0.014152996 -0.009859003 -0.023565795 -0.023666553 0.017264996 0.0073678084 -0.00073904544 -0.022560697
0.022815734 -0.027486984 0.0055785626 -0.0037938952 0.0013674274 -0.0055967234 0.029415298 0.011779759
0.013234712 -0.024636198 -0.026700824 -0.01575509 0.027693357 0.029159166 -0.030406564 0.00082200766
0.012010243 0.022779882 0.02107428 0.026339058 0.026862416 0.004364535 -0.02754647 -0.0019740053
-0.0011636503 -0.021127742 -0.0010355078 -0.030224986 -0.0010285228 0.01869595 0.015926097 -0.002962809
0.02950355 0.029399548 0.0132607855 0.021957569 -0.0053547807 0.01368212 -0.029079452 -0.0008231476
-0.014906906 -0.028886236 0.01597783 0.024377327 -0.030657023 0.009004068 -0.029321514 0.015694909
00000000: caf2 f7bc 7a9c d8bc 44d0 453c 4814 e53c
00000010: 787b a63c 1824 7e3c 0c05 163c 9c1c 8bbc
00000020: ba2b fa3c 88bc bb3b a0eb 71bb 589e 96bc
00000030: 664d 90bc de2e e13c 0035 07bb 0636 d5bc
00000040: 26b6 e13c 3c87 bf3c 30b4 963c 3cae 833c
00000050: 00b2 76b9 3abd ccbc 90fa c9bc 309e e6bb
00000060: fc8d 9dbc 4a52 c2bc 182f 5e3c 4668 c63c
00000070: 1cbf 103c 70df 20bb 344d 75bc fc17 c63c
00000080: e07f 09bc b2a5 87bc a099 b7bb 30c3 a2bb
00000090: 1024 893b 7af8 bfbc a8c9 b73b 20bf e3bc
000000a0: e483 753c e06d 0b3c 0052 5cb9 80af 703a
000000b0: 60ff 1c3c 889a 4abc a27b f0bc c891 6cbc
000000c0: 488c a7bb 0407 95bc 5ae9 c4bc f43d 65bc
000000d0: c084 9b3b c02b 95ba 00f6 e6b8 d865 ac3b
000000e0: 8874 09bc 80d6 00ba 1057 83bb da94 fbbc
000000f0: f0fb b03b fc1b dcbc 605b fdba 4878 c03c
00000100: 8064 dbb9 6c39 67bc c880 933c 345d 9fbc
00000110: 4c13 f9bc a8b8 c33b c864 d43b fc65 bcbc
00000120: f8e1 67bc a887 21bc 0e0d c1bc 5ce0 c1bc
00000130: 526f 8d3c a86d f13b 80bc 41ba 36d1 b8bc
00000140: 10e8 ba3c 622c e1bc 60cc b63b 00a3 78bb
00000150: 403b b33a b864 b7bb 5af8 f03c e4ff 403c
00000160: 68d6 583c dad1 c9bc b0bb dabc d210 81bc
00000170: 2edd e23c 34df ee3c 3017 f9bc 007c 573a
00000180: 9cc6 443c e09c ba3c f8a3 ac3c 02c5 d73c
00000190: 920e dc3c 6004 8f3b 22a9 e1bc 505e 01bb
000001a0: a085 98ba 1614 adbc e0b9 87ba 649a f7bc
000001b0: 80cf 86ba 4028 993c 7277 823c b02b 42bb
000001c0: 6eb1 f13c 52d7 f03c c443 593c 5ce0 b33c
000001d0: 2877 afbb f82a 603c 0838 eebc 80c8 57ba
000001e0: 183c 74bc d4a2 ecbc f0e3 823c f6b2 c73c
000001f0: 7024 fbbc cc85 133c ac33 f0bc 9c92 803c

network.6.weight f4 [64, 128, 1, 1]
-0.07087689 -0.08662393 -0.024657529 -0.056746 0.062568985 -0.008948113 0.0327897 0.06499806
-0.051124074 -0.08682316 0.027433604 -0.0849852 -0.004941528 0.058130503 0.07698848 -0.01827228
-0.085678525 0.04536728 0.03657712 0.046436217 -0.061823506 -0.07356373 -0.050850824 0.07073331
-0.028720379 -0.084943354 0.05070233 -0.03852126 0.04784897 0.059480403 0.00535403 0.055646442
-0.030462267 -0.07621447 0.06344883 -0.016364926 -0.034095187 -0.031966433 -0.010887174 0.014957684
0.07003825 -0.04042502 -0.05168448 -0.069848925 0.06352436 -0.038504317 -0.07505345 0.07485725
0.009236471 -0.062763736 0.059244454 0.06431995 0.031439472 -0.018460667 0.045488894 -0.0037302068
-0.076538056 0.045780487 0.0127634145 -0.027061416 -0.014629455 0.07954108 0.056954354 -0.018945208
0.0033328885 -0.050091825 0.06587371 -0.00073615793 -0.028417965 0.07489262 -0.042391565 -0.06697886
0.049164277 -0.071464 -0.041335005 0.04647341 -0.08224208 -0.028571844 -0.040353406 0.011866129
0.0781611 0.0847458 -0.021651773 -0.055057008 -0.07612518 0.014978221 -0.02941968 0.055835765
-0.041346595 0.057473328 0.045190778 -0.036364753 -0.027640946 0.016959365 -0.048766907 0.085041106
-0.032423634 0.057042092 0.06672955 -0.0040334323 0.06506545 -0.042529013 0.00982717 -0.0018349368
-0.0051442124 0.0030496405 0.0018136421 0.07800232 0.044811826 -0.06625661 0.047370687 -0.039833724
0.006353648 -0.033644468 0.034976445 -0.020344526 -0.019638428 0.02177479 -0.043936644 0.069965
0.063913465 0.0017441947 0.016853007 0.041995455 -0.07797906 -0.0024072172 0.042142224 -0.008509617
-0.04847608 0.003703159 0.061089255 -0.077040136 0.03623377 0.026519544 0.019385684 0.029945726
0.07723528 -0.06816359 0.050562363 -0.058666926 0.07610696 0.042819247 -0.085987546 -0.08269884
0.023419486 0.018095708 0.044464923 0.0751602 0.05755172 0.0014729586 -0.04969973 -0.02122041
0.053185478 -0.07779092 -0.063298516 0.044819254 0.053647384 0.04635011 -0.008025076 0.052771617
-0.051743526 -0.083066106 0.058420915 0.06032492 0.08737114 -0.003700841 -0.069772296 0.018031148
-0.04769468 0.054356158 -0.071440265 0.043814883 -0.010025207 0.013999476 -0.003676891 0.07667429
0.07125073 0.035765667 0.03751887 0.060742386 -0.065938234 -0.0856316 0.055541664 -0.0008954414
-0.0015648808 -0.01165314 0.05961268 -0.03701367 -0.079035886 -0.04663658 0.064959295 0.063399374
0.007824446 -0.00018738488 -0.06778741 0.034827616 -0.013601768 -0.025388207 0.056891058 0.045213822
-0.023209395 0.02309485 0.045864746 0.08598449 0.023091868 0.030609349 0.01928741 0.022997638
0.052085433 -0.068585284 -0.0031007964 0.0850031 0.08179526 -0.073245436 -0.04875483 0.036100913
-0.080016516 0.05155785 0.054707725 -0.07584852 0.014123893 0.081194974 0.040812604 0.06578766
-0.044195417 -0.0013839866 -0.0127092665 -0.02621259 0.087578356 -0.080286175 -0.059779666 -0.07184716
0.015712587 -0.012882426 -0.020965781 -0.026424903 -0.039328594 0.063313045 0.038275458 -0.071487926
-0.031804062 0.06467785 0.08359399 0.039306644 0.024441905 0.05249201 0.0665801 0.032247163
-0.051476695 0.054141145 -0.016374525 0.026794732 0.042622905 -0.02773328 0.074655 0.08187635
00000000: e727 91bd e367 b1bd 96fe c9bc 7e6e 68bd
00000010: 2b24 803d 1b9b 12bc 7e4e 063d b41d 853d
00000020: 7a67 51bd 57d0 b1bd 70bc e03c b80c aebd
00000030: 8bec a1bb 401a 6e3d 23ac 9d3d c0af 95bc
00000040: 3978 afbd 0ad3 393d e4d1 153d e733 3e3d
00000050: a53a 7dbd 95a8 96bd f448 50bd a0dc 903d
00000060: 0047 ebbc c8f6 adbd 3fad 4f3d 78c8 1dbd
00000070: 48fd 433d b9a1 733d dc70 af3b 86ed 633d
00000080: 018c f9bc 5516 9cbd 76f1 813d bd0f 86bc
00000090: 65a7 0bbd 3cef 02bd 1e60 32bc 1311 753c
000000a0: 3770 8f3d b594 25bd 1bb3 53bd f40c 8fbd
000000b0: 0f19 823d b4b6 1dbd a0b5 99bd c24e 993d
000000c0: 9154 173c 468a 80bd 50aa 723d 2eba 833d
000000d0: adc6 003d d33a 97bc 9052 3a3d 7c76 74bb
000000e0: fcbf 9cbd 5284 3b3d a41d 513c e7af ddbc
000000f0: 62b0 6fbc 6fe6 a23d f848 693d fb32 9bbc
00000100: 976c 5a3b 162d 4dbd cce8 863d b9fa 40ba
00000110: cbcc e8bc 4d61 993d c7a2 2dbd 362c 89bd
00000120: 7b60 493d b85b 92bd e54e 29bd e75a 3e3d
00000130: 896e a8bd 800f eabc 9d49 25bd 276a 423c
00000140: ed12 a03d 358f ad3d 0f5f b1bc 7583 61bd
00000150: 85e7 9bbd 3667 753c 8a01 f1bc 0bb4 643d
00000160: 0c5b 29bd 2769 6b3d f719 393d 35f3 14bd
00000170: 446f e2bc 5eee 8a3c cfbf 47bd 082a ae3d
00000180: a5ce 04bd f8a4 693d 81a9 883d e22a 84bb
00000190: 0941 853d e732 2ebd 2302 213c 4382 f0ba
000001a0: c890 a8bb 7adc 473b bbb7 ed3a aebf 9f3d
000001b0: 9b8c 373d 8cb1 87bd c407 423d b028 23bd
000001c0: 4332 d03b c8ce 09bd 7643 0f3d 90a9 a6bc
000001d0: c5e0 a0bc 0b61 b23c e9f6 33bd cf49 8f3d
000001e0: 10e5 823d 769d e43a 510f 8a3c 6d03 2c3d
000001f0: 7cb3 9fbd 67c2 1dbb 539d 2c3d ec6b 0bbc
00000200: db8e 46bd b3b0 723b ba38 7a3d 38c7 9dbd
00000210: dd69 143d 843f d93c bace 9e3c bd50 f53c
00000220: 882d 9e3d 5a99 8bbd 7b1a 4f3d bb4c 70bd
00000230: f7dd 9b3d 3c63 2f3d 3d1a b0bd 025e a9bd
00000240: 39da bf3c 733d 943c da20 363d 97ed 993d
00000250: 5abb 6b3d 4a10 c13a f291 4bbd 6dd6 adbc
00000260: 04d9 593d d950 9fbd a7a2 81bd 6594 373d
00000270: 5cbd 5b3d 9dd9 3d3d 9c7b 03bc 0d27 583d
00000280: 05f1 53bd 901e aabd c54a 6f3d 4317 773d
00000290: a4ef b23d cf89 72bb c7e4 8ebd 0fb6 933c
000002a0: 7f5b 43bd 90a4 5e3d 464f 92bd 3c77 333d
000002b0: c440 24bc 0f5e 653c fff7 70bb 6907 9d3d
000002c0: e7eb 913d 057f 123d 63ad 193d 02cd 783d
000002d0: a00a 87bd 9f5f afbd a87f 633d 0ebc 6aba
000002e0: b01c cdba d0ec 3ebc 6d2c 743d a59b 17bd
000002f0: 91dd a1bd 0006 3fbd 6109 853d 88d7 813d
00000300: 1b32 003c bf7c 44b9 20d4 8abd 67a7 0e3d
00000310: f3d9 5ebc eefa cfbc 9906 693d 2132 393d
00000320: a121 bebc 6931 bd3c acdc 3b3d a318 b03d
00000330: 282b bd3c 75c0 fa3c a100 9e3c 8b65 bc3c
00000340: 8957 553d 7176 8cbd bb36 4bbb 1b16 ae3d
00000350: 4684 a73d b401 96bd 25b3 47bd 8dde 133d
00000360: b3df a3bd 532e 533d 3515 603d 7856 9bbd
00000370: e767 673c 8d49 a63d 1e2b 273d aebb 863d
00000380: 4106 35bd e266 b5ba 873a 50bc c9bb d6bc
00000390: 485c b33d 146d a4bd 86db 74bd 9b24 93bd
000003a0: afb7 803c d010 53bc 6ec0 abbc 0a79 d8bc
000003b0: 0517 21bd 45aa 813d bac6 1c3d 4368 92bd
000003c0: fa44 02bd d275 843d 5333 ab3d 0100 213d
000003d0: 643a c83c dd01 573d 265b 883d 9a15 043d
000003e0: 3ad9 52bd 1bc3 5d3d de23 86bc a080 db3c
000003f0: 5b95 2e3d e730 e3bc b8e4 983d caae a73d

network.6.bias f4 [64]
0.050545905 0.0861041 -0.0540474 -0.029275011 0.085840814 0.059465956 0.07778319 -0.0057833167
0.069402695 -0.04256331 0.0076107513 0.021790763 0.04100159 0.0826994 -0.023534758 0.0141244205
-0.006290807 -0.06529261 0.0007161803 0.0143502215 0.05804602 0.0022196006 -0.05229658 -0.027400898
-0.059865687 -0.013486054 0.020465372 0.022632089 0.07839674 -0.062650986 -0.033256583 0.08229288
-0.046470765 0.041083977 0.012480124 -0.041455388 0.0326085 0.069816336 0.076377235 0.051356167
0.08499948 -0.08440104 0.069988035 -0.072883114 -0.08452134 0.0051329383 -0.08808505 0.0027485962
0.0138195725 -0.051092725 0.0531663 -0.06604672 -0.052490328 -0.085132204 0.047002956 0.036398713
-0.06305197 0.060865737 -0.065027826 0.08530238 -0.061646096 -0.043137982 0.08341822 -0.07133846
00000000: 3909 4f3d 5957 b03d ce60 5dbd 26d2 efbc
00000010: 4fcd af3d 9392 733d cb4c 9f3d fa81 bdbb
00000020: 0023 8e3d de56 2ebd 9c63 f93b 8b82 b23c
00000030: 49f1 273d 4e5e a93d f7cb c0bc 1d6a 673c
00000040: 1d23 cebb 22b8 85bd 0cbe 3b3a 311d 6b3c
00000050: aac1 6d3d b876 113b f034 56bd d977 e0bc
00000060: b935 75bd 9cf4 5cbc ffa6 a73c ee66 b93c
00000070: 788e a03d 294f 80bd 0e38 08bd 2b89 a83d
00000080: 2158 3ebd ac47 283d 6f79 4c3c 20cd 29bd
00000090: 7e90 053d defb 8e3d ab6b 9c3d d85a 523d
000000a0: 3514 ae3d 74da acbd e355 8f3d be43 95bd
000000b0: 8619 adbd 3532 a83b ef65 b4bd cb21 343b
000000c0: 7d6b 623c 9b46 51bd e8c4 593d 8143 87bd
000000d0: 1900 57bd cb59 aebd 2c86 403d d116 153d
000000e0: 6421 81bd 5a4e 793d 4f2d 85bd 04b3 ae3d
000000f0: 9e80 7cbd 74b1 30bd 2cd7 aa3d e619 92bd

network.8.weight f4 [16, 64, 1, 1]
0.09450528 0.03455475 -0.09838006 -0.08338247 -0.045511052 -0.11929895 -0.011100858 -0.053980455
0.118410155 0.04743643 0.09000513 0.036753207 0.09783943 0.01438576 -0.10133527 0.038126647
0.014299527 0.081751436 0.113637924 0.026452601 0.10644092 -0.035987973 0.0054775774 0.086405516
0.097753495 -0.0256055 -0.013016716 0.06490037 -0.020764723 -0.07115014 -0.027175277 -0.09087768
-0.048218206 0.08505924 0.108441025 0.0819948 -0.037779704 0.12200539 -0.10219905 -0.0039881915
-0.08764297 -0.06598306 -0.116840094 0.085598424 -0.035182774 0.10981193 -0.03887558 -0.074236766
0.08474521 -0.114579216 -0.009375036 0.10749693 -0.018765196 0.11068365 -0.088461384 0.06532441
0.028404072 -0.09473275 0.06493187 -0.1078438 0.014538527 -0.09296441 -0.06784257 0.03955683
-0.03723766 -0.011549607 0.111196 0.061119825 0.098671585 0.06555438 -0.013773143 0.12391581
-0.07108629 0.1182051 0.07106508 -0.052483737 -0.08658031 0.041578293 0.051753312 0.053582817
0.032421947 0.07550405 -0.05209492 0.11766048 0.00016988814 -0.030994907 -0.112506166 0.018255368
0.018333271 -0.010952413 -0.026202217 -0.09323704 -0.010016635 -0.09651512 0.027774677 0.06098868
-0.12080568 0.020210817 0.032094613 0.10584916 -0.053033978 0.058838174 -0.03610955 -0.04140614
-0.0038572252 0.030665427 -0.025365084 -0.061647967 0.06856148 -0.077319086 0.022753641 0.1164404
0.11927293 -0.050456002 0.07646777 0.09615216 0.014821246 0.051625907 0.0826405 -0.017378658
-0.07230726 0.037788942 -0.06983319 -0.015084863 0.08493954 0.030929789 0.07731816 0.085815296
-0.052256286 0.05476801 0.025754258 0.059816435 -0.08481656 -0.0006545633 0.11842926 -0.046094373
0.021497428 0.028789878 0.057930157 0.039676115 -0.044981584 0.11089799 -0.0535004 0.09741524
-0.11200017 0.020926237 -0.006184742 0.06648101 0.075699955 -0.119946584 -0.06767213 -0.068538055
-0.03291753 -0.072221026 0.053903908 0.017752051 0.08156216 -0.07500443 -0.07374683 0.11704753
0.112673715 -0.06673728 0.030148625 0.006820187 -0.11522722 0.06578627 0.11355071 0.026015848
0.08921024 0.124931544 -0.041995347 0.064435914 0.078973725 -0.09337586 0.09699415 -0.031188935
0.06490943 -0.08134879 0.11625525 -0.08581762 0.04856068 -0.032195 -0.08205895 -0.08948669
0.070546895 -0.06770122 -0.10716261 -0.11202866 0.055668637 -0.108934194 -0.1018094 -0.12124853
0.08775017 0.06365278 0.0353072 0.07620819 0.044631302 0.060239106 0.033072427 0.06176217
-0.043200016 0.038828 -0.106592566 0.100836754 0.11900216 0.022376329 -0.10556732 -9.559095e-05
-0.044956192 -0.052743733 -0.02780272 -0.094176024 -0.124570474 -0.12364769 0.08374587 -0.07925795
0.047947273 0.095693395 -0.09241241 -0.05971171 0.076916665 -0.003240928 -0.04408726 -0.061243936
0.113811284 0.039911717 0.10197158 -0.050168946 0.010141745 -0.06429532 0.11833146 -0.036721617
-0.056883976 -0.092848 0.02997598 0.009702817 -0.10012007 -0.054497182 -0.04370597 0.117887855
-0.10188064 0.11463907 0.02797398 0.11378761 0.04862587 -0.090486825 -0.09047444 0.010989293
0.05733244 0.073284045 -0.08539401 0.028280884 0.09328404 0.0594811 0.02243404 -0.03411311
00000000: fc8b c13d 4889 0d3d 7c7b c9bd 6ec4 aabd
00000010: cc69 3abd 0253 f4bd 60e0 35bc 9c1a 5dbd
00000020: 0681 f23d b44c 423d 9c54 b83d 888a 163d
00000030: 0a60 c83d 40b2 6b3c de88 cfbd b02a 1c3d
00000040: 9048 6a3c 4c6d a73d 00bb e83d 20b3 d83c
00000050: b2fd d93d 2068 13bd 407d b33b 60f5 b03d
00000060: fc32 c83d a0c2 d1bc 1044 55bc 7cea 843d
00000070: c81a aabc 2ab7 91bd b09e debc 141e babd
00000080: 7480 45bd 8a33 ae3d 5416 de3d e4ec a73d
00000090: e4be 1abd f6dd f93d bc4d d1bd 60af 82bb
000000a0: 287e b3bd 2022 87bd dc49 efbd 3a4e af3d
000000b0: d01b 10bd 14e5 e03d 003c 1fbd 7209 98bd
000000c0: e68e ad3d 82a8 eabd c099 19bc 5a27 dc3d
000000d0: 78b9 99bc 1cae e23d 3e2b b5bd cec8 853d
000000e0: a8af e83c 3e03 c2bd 00fb 843d 36dd dcbd
000000f0: 0033 6e3c 2064 bebd 0cf1 8abd 5806 223d
00000100: 8486 18bd 903a 3dbc baba e33d c858 7a3d
00000110: 5414 ca3d 6041 863d c0a8 61bc 92c7 fd3d
00000120: b095 91bd 8415 f23d 928a 913d 30f9 56bd
00000130: 0451 b1bd 004e 2a3d 48fb 533d a879 5b3d
00000140: e0cc 043d dea1 9a3d 7c61 55bd faf7 f03d
00000150: 0024 3239 08e9 fdbc a269 e6bd 488c 953c
00000160: a82f 963c c071 33bc 08a6 d6bc 10f3 bebd
00000170: d01c 24bc b8a9 c5bd b887 e33c 44cf 793d
00000180: f868 f7bd 2891 a53c a475 033d 72c7 d83d
00000190: 283a 59bd 4c00 713d 9ce7 13bd 7c99 29bd
000001a0: 80c9 7cbb 1036 fb3c 70ca cfbc 9482 7cbd
000001b0: f669 8c3d 7859 9ebd d865 ba3c 4e78 ee3d
000001c0: 5e45 f43d f4aa 4ebd 229b 9c3d 6ceb c43d
000001d0: d0d4 723c b075 533d 6c3f a93d b05d 8ebc
000001e0: d415 94bd 94c8 1a3d b404 8fbd 8026 77bc
000001f0: c8f4 ad3d 7860 fd3c fc58 9e3d eebf af3d
00000200: b00a 56bd 6c54 603d 98fa d23c 1402 753d
00000210: 4eb4 adbd 0097 2bba 0a8b f23d 74cd 3cbd
00000220: 601b b03c c0d8 eb3c 2c48 6d3d 6c83 223d
00000230: 9c3e 38bd 7c1e e33d 3c23 5bbd a481 c73d
00000240: 5860 e5bd 806d ab3c 60a9 cabb 3227 883d
00000250: 9408 9b3d 8ea6 f5bd b097 8abd ae5d 8cbd
00000260: 88d4 06bd 9ee8 93bd 58ca 5c3d c06c 913c
00000270: 100a a73d ec9b 99bd 9408 97bd 9eb6 ef3d
00000280: 7ac1 e63d 8ead 88bd 40fa f63c e07b df3b
00000290: 40fc ebbd f4ba 863d 468d e83d 301f d53c
000002a0: dcb3 b63d 1cdc ff3d 5003 2cbd faf6 833d
000002b0: fabc a13d d83b bfbd dea4 c63d f07f ffbc
000002c0: 3cef 843d 329a a6bd 3c17 ee3d 26c1 afbd
000002d0: 90e7 463d e8de 03bd 860e a8bd cc44 b7bd
000002e0: e47a 903d f0a6 8abd 1278 dbbd 486f e5bd
000002f0: cc04 643d e418 dfbd 7281 d0bd 2651 f8bd
00000300: 5cb6 b33d 645c 823d 489e 103d 0a13 9c3d
00000310: 50cf 363d 48bd 763d f476 073d 54fa 7c3d
00000320: 80f2 30bd 1c0a 1f3d 344d dabd 8083 ce3d
00000330: 68b7 f33d 904e b73c ae33 d8bd 0078 c8b8
00000340: fc23 38bd d009 58bd 88c2 e3bc 5cdf c0bd
00000350: ce1e ffbd 003b fdbd f482 ab3d fe51 a2bd
00000360: 5c64 443d e6fa c33d b842 bdbd 4494 74bd
00000370: 7c86 9d3d c065 54bb d894 34bd ecda 7abd
00000380: e415 e93d 787a 233d 7ad6 d03d f47d 4dbd
00000390: 9029 263c 44ad 83bd c457 f23d 6869 16bd
000003a0: 2cff 68bd 1827 bebd 3090 f53c 90f8 1e3c
000003b0: c00b cdbd 7038 5fbd 0805 33bd 306f f13d
000003c0: cca6 d0bd e4c7 ea3d b029 e53c 7a09 e93d
000003d0: ec2b 473d 2851 b9bd aa4a b9bd 700c 343c
000003e0: 6cd5 6a3d f215 963d 0ee3 aebd 50ad e73c
000003f0: b40b bf3d 74a2 733d 98c7 b73c 30ba 0bbd

network.8.bias f4 [16]
-0.11653985 0.0007380247 0.06771119 0.029299363 -0.07017915 0.028929502 0.100544915 -0.067727074
0.08353883 0.052625924 -0.0049572885 0.027682126 -0.062003955 -0.024341255 -0.005650431 -0.021403968
00000000: 72ac eebd 0078 413a 2aac 8a3d 3805 f03c
00000010: 16ba 8fbd 90fd ec3c 7eea cd3d 7eb4 8abd
00000020: 6816 ab3d 488e 573d c070 a2bb a0c5 e23c
00000030: dcf7 7dbd 5067 c7bc 4027 b9bb 6057 afbc

network.10.weight f4 [4, 16, 1, 1]
0.20719928 -0.0586195 0.0373725 0.17287493 -0.06685856 -0.17380977 -0.096556604 0.051209003
0.0649344 -0.14333114 0.17805704 0.108205765 -0.17210695 0.0011422634 -0.014434516 -0.09117985
-0.11834386 0.11884168 -0.039938003 0.118335724 -0.04354185 0.054078043 -0.22674972 0.046417773
-0.091269016 -0.23235422 -0.13559046 -0.12575802 -0.12972942 0.11645457 0.11844024 -0.24375826
0.12603727 0.22316977 0.12567255 -0.059916407 -0.2138263 -0.003519982 -0.099932104 0.16230589
0.114803016 0.027343422 0.13705799 0.20089948 0.07152945 -0.2281737 0.14443675 -0.001794666
0.20401707 0.12525144 -0.1199505 0.040240765 -0.15768704 0.072844476 -0.22071841 0.003020525
-0.0900664 0.15699157 -0.17658132 -0.11094287 0.0074808896 0.13520968 -0.015378654 0.16090572
00000000: 0c2c 543e 001b 70bd e813 193d 2006 313e
00000010: 24ed 88bd 30fb 31be 78bf c5bd 88c0 513d
00000020: 54fc 843d 66c5 12be 9654 363e fc9a dd3d
00000030: ce3c 30be 00b8 953a c07e 6cbc 80bc babd
00000040: 445e f2bd 4463 f33d 0896 23bd 005a f23d
00000050: f058 32bd f080 5d3d 1431 68be 9020 3e3d
00000060: 40eb babd 44ee 6dbe 3ad8 0abe b6c6 00be
00000070: cad7 04be bc7f ee3d cc90 f23d c49b 79be
00000080: ea0f 013e 9e86 643e 4eb0 003e e86a 75bd
00000090: 48f5 5abe 80af 66bb 34a9 ccbd 8433 263e
000000a0: d81d eb3d 50ff df3c ee58 0c3e 98b8 4d3e
000000b0: 087e 923d 5ea6 69be 3ae7 133e 003b ebba
000000c0: dae9 503e ea41 003e 9ca8 f5bd 80d3 243d
000000d0: b678 21be 7c2f 953d 0204 62be 00f4 453b
000000e0: bc74 b8bd 66c2 203e bcd1 34be 0436 e3bd
000000f0: 4022 f53b 6874 0a3e c0f6 7bbc 78c4 243e

network.10.bias f4 [4]
-0.07822406 -0.118186146 0.014433503 -0.012988448
00000000: f033 a0bd 940b f2bd 807a 6c3c 80cd 54bc

network.12.weight f4 [1, 4, 1, 1]
0.24419403 0.10396534 -0.3820598 -0.48773515
00000000: 000e 7a3e c8eb d43d 589d c3be 6cb8 f9be
