models/generator.pth (torch, 256584 bytes, 28 tensors)

conv1.0.weight f4 [8, 1, 3, 3]
0.18182154 -0.3266264 0.18601747 -0.21276215 0.21966462 -0.1441032 0.01435055 0.32288828
-0.21791895 -0.10849516 0.17726356 0.42900786 0.3012986 0.1083905 0.108270444 -0.2932146
0.2118692 -0.22390561 0.07809255 0.071337216 -0.40428853 -0.12018972 -0.2192867 0.15883031
0.13063534 0.30226362 0.13057816 -0.0393043 0.007702712 -0.051013343 0.19296634 -0.13297094
-0.24089345 0.33224055 0.22512127 -0.057635296 -0.020381028 0.070321664 -0.18192449 0.23236746
-0.22228123 0.19928177 -0.37992093 0.101749666 0.19874442 -0.15970387 0.10740777 0.017839342
-0.36263198 -0.34483734 0.08418063 -0.05116822 0.31143966 0.2461899 0.0049595945 -0.23564702
0.0071221446 0.03820933 -0.073370494 0.29426536 0.26119274 -0.2362289 -0.1441649 0.029868988
-0.11909614 0.08272586 -0.12137587 0.051690083 -0.27874175 -0.40736035 0.028715577 -0.018062895
00000000: 6d2f 3a3e 933b a7be 5d7b 3e3e 52de 59be
00000010: c3ef 603e ca8f 13be 921e 6b3c 9d51 a53e
00000020: 2526 5fbe b632 debd 9484 353e eba6 db3e
00000030: cf43 9a3e d7fb dd3d e5bc dd3d 3920 96be
00000040: 3df4 583e 8347 65be fdee 9f3d 3f19 923d
00000050: e8fe cebe 0726 f6bd b18c 60be 6aa4 223e
00000060: 45c5 053e 4cc2 9a3e 48b6 053e 8cfd 20bd
00000070: 0867 fc3b 5ef3 50bd f898 453e 8929 08be
00000080: c6ac 76be 6f1b aa3e 3186 663e fd12 6cbd
00000090: 1df6 a6bc ce04 903d 6a4a 3abe bcf1 6d3e
000000a0: b19d 63be 8510 4c3e ff84 c2be 2162 d03d
000000b0: a883 4b3e 6989 23be 9bf8 db3d d023 923c
000000c0: e6aa b9be 858e b0be e566 ac3d c495 51bd
000000d0: 0575 9f3e 3519 7c3e 1884 a23b 744d 71be
000000e0: e160 e93b 6381 1c3d 4543 96bd f3a9 963e
000000f0: 0ebb 853e fde5 71be f79f 13be cfaf f43c
00000100: ade8 f3bd 2d6c a93d ea93 f8bd fbb8 533d
00000110: 3db7 8ebe 8991 d0be ee3c eb3c a3f8 93bc

conv1.0.bias f4 [8]
0.08337275 0.32562298 -0.03850264 -0.08131564 0.087867446 0.12300575 -0.28132844 -0.22528368
00000000: 55bf aa3d 0eb8 a63e f2b4 1dbd d088 a6bd
00000010: d9f3 b33d 70ea fb3d 480a 90be c4b0 66be

conv1.1.weight f4 [8]
0.8204359 1.0135123 0.9067651 0.964279 1.0158752 1.0499029 1.1472986 1.0878587
00000000: 1608 523f c5ba 813f c221 683f fdda 763f
00000010: 3308 823f 3863 863f aeda 923f f43e 8b3f

conv1.1.bias f4 [8]
-0.07129958 0.019733055 -0.034716733 -0.046311814 0.02344822 -0.06540282 -0.081544004 -0.03935919
00000000: 8405 92bd 37a7 a13c 2233 0ebd 75b1 3dbd
00000010: 7b16 c03c eaf1 85bd 8b00 a7bd 1a37 21bd

conv1.1.running_mean f4 [8]
0.092959374 0.61946744 0.015309214 0.013996586 0.089143366 0.06353411 -0.3168193 -0.5347776
00000000: 7c61 be3d 6b95 1e3f 7fd3 7a3c f051 653c
00000010: cc90 b63d 2c1e 823d 2436 a2be 2fe7 08bf

conv1.1.running_var f4 [8]
0.0003277267 0.037073165 0.0027890203 0.006229728 0.0007022312 0.004889627 0.0015002463 0.039114133
00000000: bcd2 ab39 08da 173d ffc7 363b bf22 cc3b
00000010: f015 383a 2a39 a03b eaa3 c43a 2436 203d

conv2.0.weight f4 [16, 8, 5, 5]
-0.0029255124 0.063237526 -0.11062612 -0.00047323114 0.027919432 -0.15136735 0.089745216 0.025022214
-0.043009605 -0.057124697 -0.052774627 -0.09455912 -0.07198392 -0.07965707 0.05902473 0.0012183698
0.09873382 0.042033236 -0.035916314 0.0034233234 -0.019978534 0.06630312 0.09506036 0.008471423
0.067243874 -0.13052331 -0.023574164 -0.101942964 0.048308887 -0.013037434 0.030750178 -0.013275101
0.0583165 0.01510923 0.07314619 0.062292006 -0.007559708 -0.02334809 -0.02066542 0.13930726
-0.042958137 0.006021184 0.04518104 0.10681709 -0.012710743 0.086487286 0.05737053 0.050468832
0.019396689 0.04410411 0.11278028 0.03173453 0.0815372 -0.054503784 -0.00579076 -0.05142281
-0.026247924 0.049385864 0.10350451 0.030781437 -0.03835471 0.09849004 0.12664326 0.15959354
0.042330436 0.03181786 0.058881782 0.068653814 0.071798705 -0.013112623 0.20909896 0.007116111
0.06194643 0.11861204 0.010839839 -0.03305441 0.110556394 0.0074145077 -0.052617803 -0.06277557
-0.07794876 -0.014033626 0.07089488 0.020875769 0.036208972 0.0353743 0.10702139 0.14229174
-0.04033818 0.08437756 0.02639001 -0.01541115 0.15818703 0.1483251 0.014196977 0.08322874
0.016742121 -0.02618711 -0.0075003817 0.06741727 0.11538018 0.0126247415 0.06364376 0.018651046
-0.047066025 0.05218479 -0.04997443 0.025510037 -0.09570524 -0.028319733 0.09520225 0.06608483
-0.023139823 -0.118754625 0.10941606 0.05079224 0.100148015 -0.023346268 -0.19636104 0.0049238694
0.041243292 -0.07357004 0.03959189 -0.010469042 -0.004582048 0.04790785 0.016100101 -0.037448276
-0.12766933 0.038013447 -0.07439929 -0.014584527 -0.12647009 0.061491545 -0.020871459 -0.004072233
0.013166819 0.09789091 0.14065804 0.05231393 0.007920389 0.032126684 -0.0038300168 0.1963414
0.21155377 -0.09430779 -0.010794754 -0.028377917 0.12675871 0.10212564 -0.14865977 -0.02504803
-0.04832119 -0.086517096 -0.06541569 -0.08120102 0.03587599 -0.08560958 -0.0131450705 0.017105166
-0.04690908 0.10977131 0.018209232 -0.0143105155 0.09271125 0.19732998 0.07502785 0.07401936
0.087747626 0.12007 0.0834272 -0.03013411 -0.025542751 -0.06449657 0.031947248 0.001058722
-0.026297411 0.094670884 0.070286125 -0.053144578 -0.036752727 0.010245336 0.052077454 0.1308779
0.08893937 0.0826888 -0.018378781 0.01628178 0.006719166 0.012459701 -0.033207778 -0.011677764
0.009727321 0.08682309 0.056585442 -0.017306514 0.044129908 0.13037437 0.0901058 0.04648384
-0.117635325 -0.086663514 -0.06628077 0.04893238 -0.004202669 0.0033337835 -0.06591367 0.009846144
0.02430564 0.071463816 0.046932198 -0.07307381 -0.0041396725 -0.052386854 0.054148667 -0.02033048
0.01852864 -0.13306259 -0.05953626 -0.027880304 0.101409994 0.048836343 -0.004049636 -0.013920112
-0.02786149 -0.099555604 0.016257357 -0.04072784 0.04677984 0.069729045 0.083846204 0.10729003
0.019504696 0.05369319 0.07610244 0.07722463 0.02459194 0.07940943 -0.071856715 0.0018427259
0.012538347 -0.04664014 -0.029361458 -0.11277987 -0.07643162 -0.0074216924 -0.0034613402 0.0055627646
-0.11804728 -0.12570398 0.1086873 0.06460356 0.06502988 0.0026913474 0.010343915 -0.018793995
00000000: f4b9 3fbb ad82 813d f28f e2bd 021c f8b9
00000010: 4bb7 e43c 0b00 1bbe 57cc b73d 63fb cc3c
00000020: d72a 30bd 96fb 69bd 352a 58bd 36a8 c1bd
00000030: 4e6c 93bd 3f23 a3bd eac3 713d b5b1 9f3a
00000040: f534 ca3d 0b2b 2c3d fc1c 13bd d659 603b
00000050: 06aa a3bc eec9 873d 02af c23d b9cb 0a3c
00000060: 28b7 893d e7a7 05be 9b1e c1bc 79c7 d0bd
00000070: 8adf 453d f69a 55bc cce7 fb3c cf7f 59bc
00000080: 48dd 6e3d b48c 773c abcd 953d e725 7f3d
00000090: 6db7 f7bb 7e44 bfbc 874a a9bc 90a6 0e3e
000000a0: dff4 2fbd 5a4d c53b c10f 393d ebc2 da3d
000000b0: b840 50bc 3f20 b13d 5cfd 6a3d 68b8 4e3d
000000c0: cee5 9e3c 83a6 343d 59f9 e63d 11fc 013d
000000d0: fafc a63d 5c3f 5fbd 6ac0 bdbb b9a0 52bd
000000e0: e305 d7bc d548 4a3d 2cfa d33d 5a29 fc3c
000000f0: d419 1dbd 25b5 c93d c5ae 013e 7d6c 233e
00000100: ae62 2d3d 7253 023d 062e 713d 5f9a 8c3d
00000110: 330b 933d 54d6 56bc 0a1e 563e 442e e93b
00000120: 8abb 7d3d dfea f23d 9499 313c 1064 07bd
00000130: 646b e23d 66f5 f23b c485 57bd 7a90 80bd
00000140: 99a3 9fbd 4bed 65bc 5631 913d a903 ab3c
00000150: dc4f 143d a4e4 103d 082e db3d edb4 113e
00000160: a639 25bd 24ce ac3d dd2f d83c 0c7f 7cbc
00000170: c8fb 213e 89e2 173e 709a 683c d473 aa3d
00000180: c626 893c 5a86 d6bc c3c5 f5bb 1112 8a3d
00000190: 724c ec3d 01d8 4e3c a957 823d 14ca 983c
000001a0: 4ec8 40bd b8bf 553d fdb1 4cbd 6dfa d03c
000001b0: 1c01 c4bd c9fe e7bc 66f9 c23d 7c57 873d
000001c0: ba8f bdbc a035 f3bd 8715 e03d 860b 503d
000001d0: 671a cd3d ac40 bfbc de12 49be 6958 a13b
000001e0: baee 283d e4ab 96bd 1b2b 223d 5886 2bbc
000001f0: 0125 96bb 063b 443d 5ce4 833c 5d63 19bd
00000200: c0bb 02be fdb3 1b3d a85e 98bd f1f3 6ebc
00000210: 6081 01be 8fde 7b3d 9ffa aabc 5e70 85bb
00000220: a4b9 573c 087b c83d a908 103e 2247 563d
00000230: 85c4 013c 4597 033d 0501 7bbb b80d 493e
00000240: 8da1 583e 7124 c1bd 7bdc 30bc ce78 e8bc
00000250: 09cd 013e 3f27 d13d 443a 18be 8731 cdbc
00000260: 71ec 45bd e02f b1bd a9f8 85bd b84c a6bd
00000270: b4f2 123d 1354 afbd 6c5e 57bc 2220 8c3c
00000280: bc23 40bd c8cf e03d 872b 953c a776 6abc
00000290: 65df bd3d df10 4a3e 34a8 993d 7697 973d
000002a0: 07b5 b33d 43e7 f53d e1db aa3d cfdb f6bc
000002b0: 083f d1bc c716 84bd 1edb 023d d1c4 8a3a
000002c0: ab6d d7bc cfe2 c13d 2cf2 8f3d 21ae 59bd
000002d0: 078a 16bd 0edc 273c 2b4f 553d db04 063e
000002e0: d825 b63d bf58 a93d 198f 96bc 5e61 853c
000002f0: 732c dc3b c623 4c3c e104 08bd 1854 3fbc
00000300: 575f 1f3c 4ed0 b13d 23c6 673d 64c6 8dbc
00000310: 90c1 343d dc80 053e 6489 b83d d765 3e3d
00000320: caea f0bd a47c b1bd 36be 87bd 526d 483d
00000330: 8bb6 89bb 9b7b 5a3b bffd 86bd b951 213c
00000340: 9f1c c73c 9f5b 923d fa3b 403d b9a7 95bd
00000350: 17a6 87bb 9993 56bd feca 5d3d 1b8c a6bc
00000360: 60c9 973c 8f41 08be 4bdc 73bd 3c65 e4bc
00000370: 0bb0 cf3d 9e08 483d cfb2 84bb 2e11 64bc
00000380: c83d e4bc cfe3 cbbd 262e 853c 3cd2 26bd
00000390: 389c 3f3d 1ace 8e3d 8fb7 ab3d e0ba db3d
000003a0: 50c8 9f3c 64ed 5b3d 99db 9b3d f227 9e3d
000003b0: 0975 c93c 69a1 a23d 9d29 93bd 9f87 f13a
000003c0: a46d 4d3c bb09 3fbd 7187 f0bc 22f9 e6bd
000003d0: 2e88 9cbd ab31 f3bb a7d7 62bb da47 b63b
000003e0: c6c2 f1bd 8bb8 00be 7297 de3d df4e 843d
000003f0: 632e 853d 5161 303b 8679 293c ddf5 99bc

conv2.0.bias f4 [16]
-0.013451607 -0.04890793 -0.014412468 0.013330811 -0.0660486 0.026845995 -0.062604785 0.05559136
-0.0012387336 0.0073141493 -0.04781554 0.060708035 0.03286744 -0.04786478 0.06401751 -0.057131745
00000000: 2164 5cbc ae53 48bd 4622 6cbc 7969 5a3c
00000010: 7d44 87bd 22ec db3c f036 80bd c4b3 633d
00000020: 015d a2ba 88ab ef3b 3ada 43bd fda8 783d
00000030: 02a0 063d dc0d 44bd 9d1b 833d fa02 6abd

conv2.1.weight f4 [16]
0.92438424 1.0680332 1.0400769 1.0073787 1.0911522 1.116207 0.9055536 0.96877265
0.9563391 0.8863082 1.0576553 0.961601 0.9697242 1.136689 1.0138097 0.92706853
00000000: 72a4 6c3f 50b5 883f 3d21 853f c9f1 803f
00000010: e0aa 8b3f dfdf 8e3f 5cd2 673f 7c01 783f
00000020: a4d2 743f 18e5 623f 4061 873f 7c2b 763f
00000030: d83f 783f 067f 913f 84c4 813f 5d54 6d3f

conv2.1.bias f4 [16]
-0.14635347 -0.07269778 -0.037507243 -0.011424754 -0.123907916 0.027414013 0.060736272 -0.07295164
-0.14013349 -0.153474 -0.0643573 -0.030571949 0.01686645 -0.08038045 -0.088855185 -0.124638826
00000000: afdd 15be 93e2 94bd 32a1 19bd e42e 3bbc
00000010: 6fc3 fdbd 5a93 e03c 99c6 783d ab67 95bd
00000020: 277f 0fbe 4a28 1dbe c3cd 83bd 0672 fabc
00000030: 822b 8a3c 819e a4bd b5f9 b5bd a442 ffbd

conv2.1.running_mean f4 [16]
1.4945947 -0.93917435 1.0194124 0.23870383 -0.61689174 -0.9671703 -0.5637313 -1.2205095
1.2059098 0.35009784 -0.41348526 -0.10389096 -1.3953947 -1.1253462 0.36661318 -0.07636815
00000000: e14e bf3f bb6d 70bf 1b7c 823f c76e 743e
00000010: 9eec 1dbf 7998 77bf b250 10bf a839 9cbf
00000020: 415b 9a3f 0640 b33e 57b4 d3be c9c4 d4bd
00000030: 4b9c b2bf 580b 90bf b9b4 bb3e e866 9cbd

conv2.1.running_var f4 [16]
0.81507623 0.87565726 1.2022666 0.6724397 0.6456694 1.1144965 0.62240136 1.0173032
0.59528756 0.5521051 0.6103499 0.6594576 2.065715 0.998551 0.6760417 0.38910934
00000000: d6a8 503f 132b 603f dfe3 993f 0225 2c3f
00000010: 974a 253f d2a7 8e3f b255 1f3f fe36 823f
00000020: c464 183f c356 0d3f e43f 1c3f 37d2 283f
00000030: ad34 0440 0aa1 7f3f 1211 2d3f 5739 c73e

conv3.0.weight f4 [32, 16, 3, 3]
-0.047801476 0.14055209 0.031668924 -0.06024457 0.0081676915 0.16834287 -0.15160395 -0.11599695
0.0823879 0.08198729 0.09563452 0.056254167 -0.13294302 0.019067774 -0.07001283 -0.012965435
-0.082938015 -0.20509937 0.03262526 -0.052505374 0.062968165 -0.042032514 -0.12706243 0.081152365
-0.05209184 -0.106990024 0.08424713 -0.15659179 -0.07875554 -0.06983382 0.013413565 -0.16132924
-0.0013921877 -0.062652044 0.066204414 -0.0071203965 -0.009128161 0.04324224 0.11958415 0.16660321
0.057993673 0.17692564 -0.03158357 0.026503451 0.122851975 0.035843167 0.0058550015 0.14817208
-0.0075536724 0.0561825 0.07210203 -0.1111227 0.042947877 -0.030890692 -0.12706542 0.15780324
-0.04019127 0.06609884 -0.06878348 0.074761145 0.013987358 0.0004895346 -0.100056365 -0.031997375
0.05314715 -0.11291367 -0.013921784 -0.08202587 -0.06308815 0.035678446 0.064657845 -0.113065995
-0.06376636 -0.049654014 0.098534286 0.061783895 -0.03165766 0.03205748 -0.030307237 0.12124916
0.020146402 0.051925667 0.0063200304 0.013867508 -0.047304295 -0.076688 0.087771975 0.019580638
0.108173795 -0.056282658 -0.11255724 0.044444583 0.106981926 0.005890923 -0.13695888 0.09437372
0.016700786 0.04286559 0.040343568 -0.079872474 -0.05494552 0.08838419 0.01125661 0.089841194
0.014459019 -0.007086686 0.07999908 -0.087957315 0.11289809 -0.020425156 -0.10563308 0.050780036
0.11768303 -0.07974621 -0.015824735 0.025621269 0.00022256175 -0.08426295 0.070854425 -0.09186357
0.05205253 -0.01953435 -0.11995775 -0.035442222 -0.027685557 0.050586555 0.016886909 -0.02298175
0.1041425 -0.17520502 -0.086227395 0.14444564 0.07065421 -0.050048586 0.13721214 0.081602365
-0.02384484 -0.11145471 -0.013780221 0.079314455 -0.14482887 -0.062060077 -0.14358403 -0.09227835
0.03784149 -0.09136456 0.07503098 0.0054247165 -0.007597395 -0.016936041 -0.14272673 0.03097452
-0.067925155 -0.08740645 -0.029437264 -0.12026938 -0.012356952 0.1147094 0.094388545 -0.10939754
-0.13749336 0.07946172 0.013231723 0.0062923306 0.19901337 0.01969768 -0.19244722 -0.14953549
0.13817154 0.0015906137 -0.062225908 0.07919807 -0.1190111 0.03404713 -0.106134474 -0.081785135
-0.1732558 0.05379627 0.017902771 -0.034290437 -0.0032030526 0.13490495 0.039226525 -0.109005496
0.10419384 -0.0023929074 0.006044379 -0.01298821 -0.03896136 -0.23172896 0.020604204 -0.058640927
0.0086853765 0.08629001 0.008532836 -0.019632084 -0.07686509 0.13374244 -0.082611285 -0.15145472
-0.002414813 -0.18564823 0.009162019 -0.014885566 -0.09534171 -0.032284137 -0.08349545 0.0486781
0.03832119 -0.09093414 0.046784554 0.006981328 0.20987494 0.021822913 -0.07988375 -0.014067955
0.07464383 -0.008340944 -0.10984823 -0.049473155 -0.037771054 -0.07434308 0.09594846 -0.04957625
-0.026783017 0.0027582666 -0.036077097 -0.03856668 0.102456085 0.027699491 -0.070074536 -0.0006634942
-0.0034347703 -0.013731824 -0.08888536 -0.12310013 0.10240506 0.059442487 -0.26933545 -0.021284634
-0.08177725 -0.054734554 -0.13704944 -0.03405537 0.007447664 0.06555324 0.105604164 -0.07650277
-0.08068424 -0.021815926 0.05934992 -0.027160767 -0.0949232 -0.051750712 -0.102639034 0.022874827
00000000: 7bcb 43bd e3ec 0f3e 46b7 013d 03c3 76bd
00000010: c8d1 053c 1362 2c3e 113e 1bbe cf8f edbd
00000020: fdba a83d f4e8 a73d 08dc c33d c56a 663d
00000030: 3722 08be 0534 9c3c e362 8fbd fa6c 54bc
00000040: 68db a9bd 9205 52be 11a2 053d e00f 57bd
00000050: 74f5 803d 492a 2cbd a71c 02be 3633 a63d
00000060: 415e 55bd 961d dbbd c289 ac3d 9959 20be
00000070: 964a a1bd 0905 8fbd 92c4 5b3c 7e33 25be
00000080: 117a b6ba b74f 80bd 2e96 873d 3752 e9bb
00000090: 488e 15bc c61e 313d 89e8 f43d 089a 2a3e
000000a0: c68a 6d3d ff2b 353e c65d 01bd c41d d93c
000000b0: d199 fb3d 49d0 123d 50db bf3b 6cba 173e
000000c0: cc84 f7bb 9f1f 663d 3baa 933d 4c94 e3bd
000000d0: 1dea 2f3d 7a0e fdbc 701d 02be 2c97 213e
000000e0: 9a9f 24bd d45e 873d 5ade 8cbd 5f1c 993d
000000f0: 3b2b 653c 1c54 003a 5aea ccbd ae0f 03bd
00000100: d3b0 593d 483f e7bd 3218 64bc 2efd a7bd
00000110: 5c34 81bd 9023 123d 556b 843d 258f e7bd
00000120: f097 82bd 0262 4bbd 58cc c93d 1c11 7d3d
00000130: 76ab 01bd b44e 033d e246 f8bc 7b51 f83d
00000140: 110a a53c 02b0 543d 4218 cf3b 8b34 633c
00000150: 26c2 41bd 990e 9dbd cbc1 b33d 9367 a03c
00000160: 398a dd3d a588 66bd 6984 e6bd 860b 363d
00000170: 5719 db3d a508 c13b f33e 0cbe 0247 c13d
00000180: 16d0 883c d493 2f3d 4c3f 253d 2e94 a3bd
00000190: 8e0e 61bd c502 b53d a56d 383c a9fe b73d
000001a0: 85e5 6c3c 6e37 e8bb 8fd6 a33d f722 b4bd
000001b0: 1d37 e73d a852 a7bc 2856 d8bd bafe 4f3d
000001c0: cd03 f13d fb51 a3bd e0a2 81bc b2e3 d13c
000001d0: 775f 6939 0e92 acbd 201c 913d f822 bcbd
000001e0: 0935 553d 8006 a0bc 69ac f5bd dd2b 11bd
000001f0: d2cc e2bc d933 4f3d 6a56 8a3c 3944 bcbc
00000200: aa48 d53d f268 33be fd97 b0bd 8fe9 133e
00000210: 28b3 903d bfff 4cbd 5781 0c3e 241f a73d
00000220: 4156 c3bc 5e42 e4bd 70c6 61bc 9e6f a23d
00000230: 054e 14be b532 7ebd b107 13be 6efc bcbd
00000240: aeff 1a3d 581d bbbd d8a9 993d d2c1 b13b
00000250: 92f3 f8bb 74bd 8abc f526 12be 47be fd3c
00000260: 581c 8bbd 2702 b3bd 6b26 f1bc cb4f f6bd
00000270: d074 4abc c3ec ea3d c84e c13d d10b e0bd
00000280: 0fcb 0cbe d4bc a23d dec9 583c e52f ce3b
00000290: 29ca 4b3e 075d a13c e210 45be d51f 19be
000002a0: d77c 0d3e 247c d03a 98e0 7ebd 9932 a23d
000002b0: 17bc f3bd 0175 0b3d 085d d9bd f77e a7bd
000002c0: f869 31be 7a59 5c3d d5a8 923c 2174 0cbd
000002d0: 4eea 51bb 8624 0a3e feab 203d 463e dfbd
000002e0: 9463 d53d 53d2 1cbb ed0f c63b 80cc 54bc
000002f0: f295 1fbd 5b4a 6dbe 26ca a83c 7831 70bd
00000300: 1c4d 0e3c d1b8 b03d 4fcd 0b3c 77d3 a0bc
00000310: 726b 9dbd c7f3 083e 1b30 a9bd f216 1bbe
00000320: d741 1ebb 921a 3ebe 4b1c 163c 97e2 73bc
00000330: 8442 c3bd 5f3c 04bd aaff aabd b062 473d
00000340: aef6 1c3d ae3b babd 29a1 3f3d a0c3 e43b
00000350: 75e9 563e f7c5 b23c 179a a3bd 487d 66bc
00000360: ddde 983d 74a8 08bc 1cf8 e0bd 5da4 4abd
00000370: d2b5 1abd 2f41 98bd a080 c43d 7710 4bbd
00000380: 0f68 dbbc 09c4 343b 94c5 13bd 18f8 1dbd
00000390: 7fd4 d13d 0bea e23c 3d83 8fbd 58ee 2dba
000003a0: e219 61bb 72fb 60bc 8709 b6bd ec1b fcbd
000003b0: beb9 d13d f779 733d 56e6 89be 1d5d aebc
000003c0: d57a a7bd 5731 60bd b056 0cbe a57d 0bbd
000003d0: 890b f43b c740 863d ff46 d83d 7cad 9cbd
000003e0: c73d a5bd 50b7 b2bc e718 733d 4280 debc
000003f0: 1867 c2bd 8ef8 53bd 6a34 d2bd fd63 bb3c

conv3.0.bias f4 [32]
-0.079094164 -0.06524342 -0.07723491 0.022539845 -0.009954942 0.021427616 -0.07951214 -0.048902344
-0.002035822 0.06030398 -0.035669606 -0.03122528 0.02616706 0.009679573 0.031041382 0.063524425
-0.08220107 -0.07656489 0.02081591 0.060621515 0.0031602122 0.07104616 0.04058235 -0.0077408953
-0.065379165 0.034774054 0.035935976 0.035292324 -0.049629234 0.019494371 0.06981473 0.07137702
00000000: 1ffc a1bd 589e 85bd 562d 9ebd 7ba5 b83c
00000010: 0e1a 23bc f888 af3c 43d7 a2bd d34d 48bd
00000020: 6d6b 05bb 4e01 773d 4b1a 12bd 29cc ffbc
00000030: 4d5c d63c 1297 1e3c 7f4a fe3c 1819 823d
00000040: 0959 a8bd 0ece 9cbd 2186 aa3c 444e 783d
00000050: 901b 4f3b a680 913d ae39 263d 56a7 fdbb
00000060: 83e5 85bd 3d6f 0e3d 9a31 133d af8e 103d
00000070: 0648 4bbd a9b2 9f3c 06fb 8e3d 1d2e 923d

conv3.1.weight f4 [32]
1.0302002 0.965768 0.9858404 0.9255894 0.982924 1.0142714 0.91502327 1.029269
0.9330365 0.98763037 0.92073804 1.0187534 0.9834048 1.0425758 1.0260419 1.0713549
0.9826522 0.9468162 1.0757906 1.0198654 1.0015067 0.92592865 0.9810224 0.9594038
0.99573886 0.96007544 0.8970998 0.9447632 0.95761555 1.0481765 0.92519724 0.93901783
00000000: 9add 833f 923c 773f 0960 7c3f 6df3 6c3f
00000010: e8a0 7b3f a5d3 813f f73e 6a3f 16bf 833f
00000020: 7bdb 6e3f 58d5 7c3f 7db5 6b3f 8366 823f
00000030: 6bc0 7b3f 2073 853f 5755 833f 2822 893f
00000040: 188f 7b3f 8c62 723f 82b3 893f f38a 823f
00000050: 5f31 803f a909 6d3f 4924 7b3f 7d9b 753f
00000060: bee8 7e3f 81c7 753f 55a8 653f 00dc 713f
00000070: 4b26 753f a62a 863f bad9 6c3f 7963 703f

conv3.1.bias f4 [32]
-0.22773626 -0.12654033 -0.21178426 -0.21341264 -0.17594889 -0.20792426 -0.13448258 -0.072795756
-0.25800928 -0.04864426 -0.17457718 -0.17091359 -0.20511277 -0.20537913 -0.12864015 -0.42250946
-0.1467052 -0.10368939 -0.20868488 -0.26813975 -0.18114656 -0.19368492 -0.111742996 -0.28790838
-0.27910113 -0.1657447 -0.202702 -0.21582982 -0.0854678 -0.32431144 -0.20668302 -0.18318394
00000000: b233 69be ca93 01be f9dd 58be d888 5abe
00000010: f22b 34be 19ea 54be cdb5 09be f115 95bd
00000020: cb19 84be 343f 47bd 5cc4 32be f903 2fbe
00000030: 1509 52be e84e 52be 3eba 03be 2953 d8be
00000040: e339 16be 1a5b d4bd 7db1 55be 9d49 89be
00000050: 7c7e 39be 5755 46be 83d9 e4bd ba68 93be
00000060: 58e6 8ebe fbb8 29be 1d91 4fbe 7e02 5dbe
00000070: be09 afbd 260c a6be b7a4 53be 9294 3bbe

conv3.1.running_mean f4 [32]
-0.0737159 -0.70014346 -0.5152603 -0.20324014 -0.32021728 -0.20854808 -0.61038226 0.768272
-0.4586289 0.29545584 -0.10738451 0.4206289 -0.58543867 -0.2712423 1.1806341 0.10458856
-0.034890734 -0.79868394 -0.49805516 -0.07486133 -0.08029405 0.115892336 -0.64968586 -0.18684983
-0.26850086 0.32019824 0.7675539 -0.16864087 -0.7102945 -0.2903225 -1.1624929 0.2794005
00000000: 5df8 96bd 9a3c 33bf 19e8 03bf 2f1e 50be
00000010: 85f3 a3be a18d 55be 0342 1cbf 79ad 443f
00000020: 68d1 eabe fd45 973e 69ec dbbd ac5c d73e
00000030: 4fdf 15bf 45e0 8abe 051f 973f 8732 d63d
00000040: 96e9 0ebd 8d76 4cbf 1601 ffbe e650 99bd
00000050: 3571 a4bd f658 ed3d d051 26bf 9055 3fbe
00000060: f278 89be 06f1 a33e 6a7e 443f 31b0 2cbe
00000070: dcd5 35bf 27a5 94be 91cc 94bf 950d 8f3e

conv3.1.running_var f4 [32]
0.33195576 0.3528357 0.35998854 0.30216223 0.37274644 0.30488905 0.36745423 0.4751223
0.38360608 0.55150265 0.410429 0.36866418 0.38316923 0.17637219 0.7229157 0.21691117
0.4178296 0.40836856 0.41878092 0.2833132 0.28922075 0.21610752 0.7963183 0.27416795
0.304747 0.37742427 0.2554374 0.27715683 0.26944938 0.5814865 0.43828246 0.25735757
00000000: 1bf6 a93e e2a6 b43e 6b50 b83e 02b5 9a3e
00000010: 9fd8 be3e 6b1a 9c3e f622 bc3e 3b43 f33e
00000020: 0468 c43e 472f 0d3f c023 d23e 8dc1 bc3e
00000030: c22e c43e e99a 343e 0111 393f f61d 5e3e
00000040: c3ed d53e af15 d13e 746a d63e 6e0e 913e
00000050: be14 943e 4a4b 5d3e 84db 4b3f be5f 8c3e
00000060: cc07 9c3e c13d c13e b1c8 823e 80e7 8d3e
00000070: 45f5 893e 4ddc 143f 8f66 e03e 5fc4 833e

bottleneck.0.weight f4 [32, 32, 5, 5]
-0.07477273 -0.13646848 0.03808753 0.04427889 0.0640238 -0.054947402 -0.022680188 0.08880694
-0.0029070424 0.1310911 0.009720174 -0.056429338 0.0073179323 -0.044797946 0.04209365 0.03121449
-0.13011079 -0.0029690533 -0.009350318 0.097924635 -0.004590233 0.03112872 -0.13495228 -0.0062103737
-0.025489002 0.033007607 -0.057438582 -0.04649706 0.08750163 -0.040194236 0.07865868 -0.034056764
0.012914516 -0.008315188 -0.11637475 -0.042618044 0.015406034 -0.044645082 -0.073809184 -0.15182802
-0.040860742 -0.04603358 0.017453369 -0.045337677 0.0021902511 -0.118000016 0.07887982 -0.0027180484
0.0525429 -0.049787547 0.03365451 -0.017422026 0.09052089 0.045778856 0.06553702 0.11875987
0.018995417 0.03771767 -0.021759668 0.041293602 0.03545509 0.026752543 0.036533084 -0.02910421
-0.025378948 0.030042864 0.08445782 -0.0006121198 0.033512387 -0.029651837 0.10641242 0.06010632
0.04569049 -0.025648655 0.011568811 -0.05233007 0.05326647 0.030990075 -0.06272925 0.06314204
-0.010676931 -0.049392223 0.06292975 0.024589026 -0.0017216603 -0.018494425 -0.028987523 0.02143656
0.09976989 0.04587529 -0.00037653372 0.028044827 0.015219405 0.049730998 0.020603 -0.004747265
0.037029505 -0.059856795 0.15780197 -0.014725184 -0.016138472 -0.026984144 -0.050868362 0.0073885876
0.09339049 0.0076726335 -0.016606433 0.0166214 -0.060355075 -0.03015235 -0.052181497 0.017011391
-0.02013483 0.00043189412 0.011563959 -0.03763522 0.080743104 0.019328764 0.0250434 0.08604515
0.045335367 0.020931255 0.06597227 0.029421335 -0.016025973 -0.0021495963 0.005410331 -0.051748723
-0.013967936 -0.010430183 0.050418872 0.051098894 -0.020992965 -0.044926435 -0.024581501 0.006827695
-0.0015097436 -0.057641238 -0.087839305 -0.090352185 0.010420371 0.048832353 -0.012502042 -0.040154714
0.02793086 0.019569434 -0.010586997 -0.13776854 -0.08824092 -0.08936685 -0.05388657 0.034627605
0.040368576 -0.0060988683 0.039211113 -0.06364682 -0.015166016 -0.0298095 -0.01751274 -0.09062965
-0.024243616 -0.069198094 -0.03812071 0.03205713 -0.023250723 0.09073362 0.0039253747 0.013970738
0.038129844 -0.009253382 -0.0681876 0.004769027 0.069857836 -0.03535226 0.11145526 0.0604822
0.011595039 -0.025020506 -0.009997565 0.038756207 -0.023752853 0.006625731 0.013887196 0.024806382
-0.020541787 0.03536003 -0.013582359 -0.03521828 -0.04739377 -0.022772219 0.028461372 -0.039713018
0.00113143 -0.0707023 0.03777309 -0.0003427295 -0.06121149 0.07259516 -0.09617778 -0.03383762
0.0592059 0.10343807 -0.07221681 -0.040998 0.061395455 -0.06149265 -0.12682517 -0.08605703
-0.055998605 -0.11289116 0.010733367 -0.04222539 -0.016324257 0.030864095 -0.070104614 0.02538622
-0.02989664 0.0110009415 -0.038015943 -0.015811732 -0.0057458025 -0.031945795 -0.035811737 -0.04459676
-0.016704291 0.040883057 -0.016452236 0.08628523 0.09776694 0.009418261 -0.04593127 -0.0030364103
-0.013007128 0.008130256 -0.056842193 0.07312015 0.08756196 -0.037364636 0.09246758 -0.0074937185
0.038620368 -0.09737439 -0.0062195477 -0.04481993 -0.016612653 -0.07635093 0.08970645 0.062133193
-0.013089775 0.09436844 0.06815392 0.08970776 -0.03583187 0.040038567 0.003135998 -0.018331835
00000000: 7222 99bd 65be 0bbe ab01 1c3d c85d 353d
00000010: e91e 833d 8710 61bd cdcb b9bc 6ae0 b53d
00000020: 1484 3ebb bf3c 063e 5d41 1f3c 7322 67bd
00000030: 44cb ef3b 0d7e 37bd 646a 2c3d 88b5 ff3c
00000040: c33b 05be 7394 42bb 1432 19bc b68c c83d
00000050: aa69 96bb a801 ff3c ee30 0abe 6480 cbbb
00000060: 50ce d0bc fc32 073d b844 6bbd b473 3ebd
00000070: 0e34 b33d b6a2 24bd cd17 a13d 1b7f 0bbd
00000080: 6897 533c 6d3c 08bc e355 eebd 4290 2ebd
00000090: 9769 7c3c c3dd 36bd 4529 97bd ce78 1bbe
000000a0: 985d 27bd b58d 3cbd 5efa 8e3c 00b4 39bd
000000b0: 518a 0f3b fea9 f1bd be8b a13d 4921 32bb
000000c0: 3937 573d 07ee 4bbd 50d9 093d a3b8 8ebc
000000d0: 0463 b93d 9c82 3b3d 4638 863d 6038 f33d
000000e0: 479c 9b3c d87d 1a3d 5541 b2bc 7b23 293d
000000f0: 5b39 113d 2628 db3c b7a3 153d f46b eebc
00000100: 83e7 cfbc 741c f63c 39f8 ac3d aa76 20ba
00000110: 4944 093d 69e8 f2bc c1ee d93d 0b32 763d
00000120: f425 3b3d 211d d2bc 1c8b 3d3c 0e58 56bd
00000130: f12d 5a3d e6de fd3c 3178 80bd 9d50 813d
00000140: 4bee 2ebc 804f 4abd 50e1 803d ed6e c93c
00000150: 55a9 e1ba 9f81 97bc 3e77 edbc ba9b af3c
00000160: 2854 cc3d bae7 3b3d 8069 c5b9 44be e53c
00000170: d05a 793c bbb2 4b3d 9fc7 a83c f28e 9bbb
00000180: 40ac 173d 662c 75bd d796 213e e641 71bc
00000190: d434 84bc da0d ddbc 585b 50bd f71b f23b
000001a0: 8343 bf3d b76a fb3b 370a 88bc 9a29 883c
000001b0: e236 77bd 1002 f7bc 44bc 55bd 795b 8b3c
000001c0: cdf1 a4bc d96f e239 c276 3d3c 6327 1abd
000001d0: a45c a53d 5b57 9e3c d127 cd3c 7138 b03d
000001e0: 94b1 393d 0678 ab3c 781c 873d 0305 f13c
000001f0: e748 83bc 3ee0 0cbb 2549 b13b 78f6 53bd
00000200: c5d9 64bc 5ce3 2abc 0584 4e3d 134d 513d
00000210: 70f9 abbc c804 38bd 255f c9bc dbba df3b
00000220: 97e2 c5ba 3819 6cbd 18e5 b3bd 910a b9bd
00000230: 34ba 2a3c 6f04 483d 5dd5 4cbc 4579 24bd
00000240: 42cf e43c 1450 a03c 1575 2dbc 3213 0dbe
00000250: a8b7 b4bd f805 b7bd 2ab8 5cbd add5 0d3d
00000260: 8559 253d 04d9 c7bb d59b 203d 4459 82bd
00000270: e27a 78bc 0d33 f4bc e176 8fbc 0a9c b9bd
00000280: 8c9a c6bc bbb7 8dbd 7624 1cbd 564e 033d
00000290: 4d78 bebc 8cd2 b93d 6ea0 803b 86e5 643c
000002a0: 0a2e 1c3d 7f9b 17bc f1a5 8bbd 7f45 9c3b
000002b0: a011 8f3d 88cd 10bd a842 e43d 2fbc 773d
000002c0: 1ef9 3d3c cef7 ccbc d4cc 23bc d4be 1e3d
000002d0: 5895 c2bc a91c d93b 1f87 633c c136 cb3c
000002e0: 4047 a8bc aed5 103d 8b88 5ebc 0b41 10bd
000002f0: f81f 42bd ce8c babc d327 e93c 1eaa 22bd
00000300: 7e4c 943a 5ecc 90bd f5b7 1a3d 60b0 b3b9
00000310: e6b8 7abd c5ac 943d dbf8 c4bd 5199 0abd
00000320: e381 723d 57d7 d33d 68e6 93bd 85ed 27bd
00000330: cd79 7b3d b8df 7bbd 75de 01be ab3e b0bd
00000340: cb5e 65bd 7b33 e7bd 01db 2f3c 88f4 2cbd
00000350: 73ba 85bc b3d6 fc3c 0293 8fbd c3f6 cf3c
00000360: cce9 f4bc 4b3d 343c 9bb6 1bbd 9b87 81bc
00000370: 4947 bcbb 98d9 02bd 54af 12bd 18ab 36bd
00000380: 70d7 88bc fe74 273d d7c6 86bc 50b6 b03d
00000390: 093a c83d 0d4f 1a3c 6d22 3cbd 83fe 46bb
000003a0: d91b 55bc c434 053c 5cd3 68bd 04c0 953d
000003b0: af53 b33d a90b 19bd a55f bd3d de8d f5bb
000003c0: 6430 1e3d 396c c7bd 59cd cbbb 1a95 37bd
000003d0: 4217 88bc e05d 9cbd 04b8 b73d 607f 7e3d
000003e0: 7f76 56bc 3e44 c13d 4894 8b3d b4b8 b73d
000003f0: 70c4 12bd 7bff 233d 5185 4d3b a52c 96bc

bottleneck.0.bias f4 [32]
-0.034003165 0.025529757 0.023354681 -0.02692607 -0.02343017 -0.047582947 -0.009587001 0.010870722
-0.047244035 0.016930996 -0.008338656 -0.042588472 -0.011553112 0.04784741 0.078915216 0.040742647
-0.016425977 -0.0016845491 0.005169219 -0.0025869184 -0.004768762 -0.058075592 -0.046938956 -0.04536282
-0.009199117 -0.003693226 -0.03506983 0.03201793 -0.018906703 0.024960706 0.0039344314 -0.085655935
00000000: e746 0bbd c823 d13c 5152 bf3c 1094 dcbc
00000010: a1f0 bfbc 56e6 42bd cc12 1dbc 1d1b 323c
00000020: f682 41bd dfb2 8a3c dc9e 08bc 4071 2ebd
00000030: 4449 3dbc a5fb 433d 4d9e a13d c3e1 263d
00000040: c58f 86bc 17cc dcba 8d62 a93b 4a89 29bb
00000050: 4643 9cbb ace0 6dbd 1043 40bd 5dce 39bd
00000060: e5b7 16bc 0d0a 72bb 62a5 0fbd 3c25 033d
00000070: 3be2 9abc 657a cc3c 67ec 803b 616c afbd

deconv4.0.weight f4 [34, 32, 4, 4]
-0.00805318 -0.005954682 -0.009241798 0.002017561 0.005298467 0.00038023246 -0.010587984 0.006865143
-0.00074321096 -0.0033479186 -0.012912487 0.0034704306 -0.0010697214 0.006647194 0.0018527862 0.006157664
0.0016910398 -0.0047479034 0.006606165 0.0022060904 -0.0074742404 0.0018858443 -0.002673026 0.014086141
-0.009598307 -0.004118819 -0.0016904888 -0.0017062287 -0.001406441 -0.0034933067 -0.0051700543 -0.008553698
-0.008789687 0.0035263367 -0.0063054375 0.0001291321 -0.010082033 0.004598262 -0.012265688 0.0018119011
0.008786229 0.003149776 -0.0002249408 0.0020717457 0.0030640787 -0.006475098 0.007654896 0.0014812794
0.0012595939 1.8836552e-05 -0.0031791637 0.003998388 0.008676271 -0.002817544 0.002437071 -0.006423147
0.002349022 0.0011294046 -0.0068579474 -0.0013894559 0.0018937091 0.0012394661 0.00056878896 0.0021345713
-0.0021704412 -0.010191814 0.005403398 0.008819756 0.006442053 0.005865923 0.006470547 0.005488754
-0.0023369244 -0.006924268 -0.002247742 -0.0023298722 -0.008068328 0.011434431 -0.0061367317 -0.00070069946
-0.0010924973 -0.0040169246 -0.00273562 0.00030096588 -0.0009664031 -0.0002885119 -0.0048881313 0.0019625195
0.006682844 -0.0096185785 -0.0047552143 -0.004560913 -0.009214155 0.0028798752 -0.0031033254 -0.0045809713
0.0030749375 0.005063857 0.0022391123 0.002698744 -0.009734882 -0.004247096 0.0020598297 0.006810122
0.006430598 0.0011840885 -0.0006465584 -0.01009099 0.0064361873 0.012311192 0.0010364493 -0.010114281
0.0044188094 0.002034789 -0.0014496841 0.0002626947 -0.00010658282 -0.011368744 -0.0020226054 -0.00092947826
0.0056560077 0.0027498775 0.0057169674 0.008807065 4.5203324e-05 -0.0019506601 0.0064666024 -0.0060603567
0.0016989416 0.0072800014 0.005063757 0.0109999245 0.0065792133 0.0059389616 -0.0025408375 -0.0032230914
-0.0026327604 0.0049175075 0.009264996 0.0062899413 -0.002774277 0.0033682976 -4.9115547e-06 0.0017622439
0.0116286 0.00054057915 -0.0001530274 0.008103563 0.0014815805 0.004586203 0.009649456 -0.00027593801
-0.0069562965 -2.1653328e-05 -0.00050857046 0.0089757405 0.0025400186 0.010241878 0.003705903 0.0030515988
0.0010003347 0.008167275 -0.002973869 0.008142795 0.0044896947 0.005708388 0.0037697877 0.015730495
-0.007850967 -0.0033371607 -0.0060079996 -0.0059081772 0.0027110837 -0.0063474006 0.0040405574 0.013391519
0.0022976152 -0.0016036652 0.0036167568 0.0006383807 -0.00907681 -0.00032503274 -0.003205798 -0.0061564
0.0025578458 0.0034722558 -0.00403727 -0.008769847 0.015769059 0.0017660973 0.0018487188 -0.0062295664
0.001670083 0.006820018 -0.0066599455 -0.0028321699 -0.010080369 0.0049648834 -0.0007313589 -0.004976718
0.015239406 -0.0009850179 -0.0019851672 -0.003209914 -0.00729875 -0.006309247 0.0022693078 0.0070237317
0.004310915 0.004050419 0.0006088077 0.0055241357 -0.0008342468 0.00011673405 -0.002844894 0.0017778046
-0.00069425494 0.0025072491 -0.0054803737 -0.0023692304 -0.004893942 -0.0018821007 -0.0025393388 -0.0029591545
0.0027860403 -0.009229991 -0.00091829 -0.01599226 -0.0029454369 0.001573115 8.685738e-05 0.00097086665
7.7357574e-05 0.0022668673 -0.0032952724 -0.003580534 0.011707754 -0.00045646526 0.012478473 0.008441495
-0.00039499986 -0.0069203507 -0.01116683 0.00625163 -0.0013888058 -0.0024673513 -0.0024012323 -0.0036274595
-0.0006574445 -0.00045456685 -0.0014005813 0.006456672 -0.0038189339 -0.0114490045 -0.0023036294 0.0053534126
00000000: 7cf1 03bc 7e1f c3bb e96a 17bc 0f39 043b
00000010: c39e ad3b f059 c739 3979 2dbc fef4 e03b
00000020: 0bd4 42ba c168 5bbb e58e 53bc 2a70 633b
00000030: e535 8cba b4d0 d93b 30d9 f23a 3bc6 c93b
00000040: e1a5 dd3a 4d94 9bbb 8778 d83b 0e94 103b
00000050: 79ea f4bb 6f2e f73a ef2d 2fbb 8fc9 663c
00000060: 3842 1dbc 28f7 86bb 6493 ddba 89a3 dfba
00000070: 5458 b8ba f6ef 64bb 8f69 a9bb cf24 0cbc
00000080: 9f02 10bc 1d1a 673b d89d cebb a267 0739
00000090: 1d2f 25bc 04ad 963b 06f6 48bc 507d ed3a
000000a0: 1ef4 0f3c 796c 4e3b 16de 6bb9 20c6 073b
000000b0: b6ce 483b 0f2d d4bb ecd5 fa3b 7d27 c23a
000000c0: f518 a53a 3003 9e37 8459 50bb e904 833b
000000d0: eb26 0e3c 8ba6 38bb 44b7 1f3b 4379 d2bb
000000e0: 0df2 193b 8808 943a a2b8 e0bb 671e b6ba
000000f0: 5536 f83a 9575 a23a c81a 153a 2ae4 0b3b
00000100: f63d 0ebb 91fb 26bc fd0e b13b bd80 103c
00000110: db17 d33b ee36 c03b e206 d43b 01db b33b
00000120: 1627 19bb f8e4 e2bb da4e 13bb c5b0 18bb
00000130: 0531 04bc 7b57 3b3c a316 c9bb 25af 37ba
00000140: 2032 8fba 68a0 83bb 1648 33bb f5ca 9d39
00000150: 3756 7dba 6943 97b9 9e2c a0bb 9d9d 003b
00000160: c2fb da3b 3e97 1dbc a1d1 9bbb b673 95bb
00000170: f8f6 16bc 4abc 3c3b 2961 4bbb f91b 96bb
00000180: e484 493b b6ee a53b 12be 123b 69dd 303b
00000190: 0e7f 1fbc 392b 8bbb 35fe 063b 7227 df3b
000001a0: c4b7 d23b 6b33 9b3a cd7d 29ba ae54 25bc
000001b0: a7e6 d23b e2b4 493c 78d9 873a 5fb6 25bc
000001c0: a9cb 903b 185a 053b 5403 beba 49ba 8939
000001d0: 3785 dfb8 f843 3abc b08d 04bb 3ba8 73ba
000001e0: 0856 b93b 4a37 343b 6655 bb3b 824b 103c
000001f0: b398 3d38 4bad ffba cbe5 d33b f595 c6bb
00000200: 05af de3a 148d ee3b dfed a53b 0739 343c
00000210: 7196 d73b 9f9b c23b 2e84 26bb 803a 53bb
00000220: 648a 2cbb 0b23 a13b 36cc 173c da1b ce3b
00000230: a5d0 35bb a8be 5c3b efcd a4b6 18fb e63a
00000240: e285 3e3c a7b5 0d3a fb75 20b9 cfc4 043c
00000250: 9831 c23a dc47 963b c018 1e3c c6ab 90b9
00000260: a5f1 e3bb 2ba4 b5b7 9651 05ba fc0e 133c
00000270: 7176 263b 8dcd 273c bcde 723b 55fd 473b
00000280: aa1d 833a 09d0 053c 3ee5 42bb 5c69 053c
00000290: 4a1e 933b 6e0d bb3b 8b0e 773b 3ddd 803c
000002a0: 58a1 00bc 44b4 5abb c1de c4bb 6299 c1bb
000002b0: 70ac 313b dbfd cfbb a766 843b 1a68 5b3c
000002c0: 9693 163b 1332 d2ba 1c07 6d3b 0159 273a
000002d0: e7b6 14bc 2869 aab9 5e18 52bb a0bb c9bb
000002e0: 88a1 273b c98e 633b 134b 84bb 68af 0fbc
000002f0: 1d2e 813c 647c e73a b650 f23a 6421 ccbb
00000300: b0e6 da3a 757a df3b ac3b dabb ed9b 39bb
00000310: 2228 25bc 76b0 a23b aab8 3fba bd13 a3bb
00000320: b4ae 793c b71b 81ba 9419 02bb 6c5d 52bb
00000330: 5a2a efbb cdbd cebb abb8 143b 5527 e63b
00000340: 9342 8d3b 61b9 843b 6598 1f3a cf03 b53b
00000350: 5bb1 5aba 1ecf f438 6771 3abb 3905 e93a
00000360: a9fe 35ba a950 243b b594 b3bb 1745 1bbb
00000370: 5c5d a0bb d2b0 f6ba 096b 26bb 60ee 41bb
00000380: 0096 363b 6339 17bc 66b9 70ba 3302 83bc
00000390: 3b08 41bb fb30 ce3a 3327 b638 c281 7e3a
000003a0: 083b a238 b98f 143b 7ff5 57bb 64a7 6abb
000003b0: e1d1 3f3c bb51 efb9 8272 4c3c 324e 0a3c
000003c0: fc17 cfb9 1cc4 e2bb 14f5 36bc 79da cc3b
000003d0: 9708 b6ba 49b3 21bb fe5d 1dbb acba 6dbb
000003e0: 5b58 2cba ee52 eeb9 b693 b7ba 7e92 d33b
000003f0: 1447 7abb 9b94 3bbc 7df8 16bb ae6b af3b

deconv4.0.bias f4 [32]
-0.009879846 -0.028067777 0.021922832 0.08016502 -0.007047701 -0.0401585 0.0038852058 0.006043581
0.069959156 0.106135204 0.13322933 0.036057767 -0.098675534 -0.005915267 0.041289702 -0.009510141
0.0052661877 0.041470736 -0.00988895 0.014920349 -0.048240215 0.06223236 -0.043554757 0.028064983
-0.050720286 -0.021654112 0.052649803 0.0989414 -0.14810511 -0.0065706423 0.11369832 0.05601795
00000000: 14df 21bc 65ee e5bc 8397 b33c 8f2d a43d
00000010: 67f0 e6bb 3d7d 24bd f09e 7e3b 3b09 c63b
00000020: bf46 8f3d 6a5d d93d 456d 083e 4fb1 133d
00000030: 6616 cabd dbd4 c1bb 641f 293d 6cd0 1bbc
00000040: fc8f ac3b 38dd 293d 4305 22bc 7b74 743c
00000050: 8897 45bd 5ce7 7e3d 7966 32bd 89e8 e53c
00000060: 13c0 4fbd f763 b1bc 52a7 573d caa1 ca3d
00000070: dea8 17be 8b4e d7bb aada e83d 1473 653d

deconv3.0.weight f4 [32, 16, 4, 4]
0.0039785537 -0.013382579 0.0068293847 0.015975676 -0.05634639 -0.17275679 0.026498387 -0.050247572
-0.02373419 0.09517248 -0.06218645 0.0635672 0.06446618 0.037304215 0.05729111 -0.041173615
0.016494226 0.03883968 0.021727214 -2.6977887e-05 0.05900193 0.032932106 0.016084412 -0.0077823675
0.080283746 0.04035595 -0.011210106 -0.021644969 0.057922017 0.08865207 0.008212066 0.011311263
-0.057835974 -0.036788113 -0.053182308 -0.31216863 -0.00489811 -0.09485968 0.12198591 0.010422602
0.033965956 0.07916082 0.009706737 -0.29049686 -0.10443921 -0.06439632 -0.11324098 -0.22085589
-0.011303074 -0.021825334 -0.0077887005 0.05631986 -0.014262842 -0.035364162 -0.03938906 0.006962343
0.015930211 -0.031431764 -0.030818945 0.00922225 0.014705188 0.052043665 -0.03353132 -0.025890209
-0.047500342 -0.08506468 -0.07376382 -0.071016185 -0.0395653 -0.10595867 -0.06847912 -0.03368729
-0.0403348 -0.12436177 -0.1134779 -0.107832424 0.0057908287 -0.061372228 -0.08972096 -0.09132275
-0.28756914 0.04086308 -0.13557968 -0.054657232 0.028495738 -0.05641024 0.010622936 -0.091708116
-0.1816281 0.036671508 -0.036276773 0.026552647 -0.2781229 -0.21448305 -0.024511527 -0.29255164
0.0385883 -0.13299263 0.081122205 0.008688223 0.015798697 0.045794323 0.029023403 -0.0050725485
0.052944385 0.058037043 0.003215284 0.06208235 0.08642719 0.00745868 -0.0046225484 -0.038043894
0.060702942 0.02523053 -0.012859572 0.007850795 0.050551657 -0.008061167 0.042410996 0.034030158
0.036815185 -0.0032027862 0.008215081 0.0136536 -0.06449426 0.06413656 0.010484992 0.035627645
0.031930022 0.0311686 -0.058084052 -0.020863026 0.015963593 -0.022812912 -0.020253375 -0.050369363
0.07849864 0.058642182 0.008736361 -0.030539174 0.019642211 0.09112709 0.08110282 0.0018845713
0.015146302 -0.0148441475 -0.04191756 -0.05521288 0.04808608 0.014597415 -0.010261137 -0.033191327
0.086347155 0.02700053 0.0026833592 -0.018315442 0.043084297 0.045224857 0.043348387 -0.012239368
0.020682547 0.030965917 -0.015840443 -0.00657521 -0.017397411 0.00970467 -0.03933047 -0.0045256237
-0.011105598 0.016484773 -0.022718715 0.003392292 0.020573238 0.0814937 0.008400364 0.06388534
0.0056711384 0.08958552 0.1553248 0.17112191 -0.13596123 -0.055088114 -0.18466751 -0.10938218
-0.010873263 -0.10721036 0.08219941 0.06540537 -0.2645035 -0.043239467 -0.049530316 0.043776788
-0.27241856 -0.04499429 -0.041341756 -0.08090384 0.11214693 0.041347805 0.15958461 0.13362563
0.13374539 0.14983746 0.09187395 0.096933864 0.069829755 0.09101297 -0.022180287 0.19571558
0.027029369 0.052235138 0.03311793 0.0928739 0.0148917185 0.050621703 0.029515587 0.009825043
-0.009782157 0.057792258 0.06987725 0.06393731 -0.035535563 0.009972988 0.042381294 0.06546899
0.094053626 0.079855226 -0.002531267 0.025027277 0.1646277 0.02781101 0.031053143 0.07348317
0.048739556 0.0406893 -0.014067559 0.045792397 -0.002948122 -0.00017642218 -0.08525956 0.044094287
0.032275256 -0.16327128 0.026656142 0.08918221 0.03556099 0.12074725 0.008819534 0.10881387
0.063220225 0.0697689 -0.0114446515 0.03211409 0.064568564 -0.064173415 -0.028905634 -0.03456777
00000000: 875e 823b 9b42 5bbc 08c9 df3b 6cdf 823c
00000010: 79cb 66bd 28e7 30be 2513 d93c 66d0 4dbd
00000020: 346e c2bc cae9 c23d 38b7 7ebd 852f 823d
00000030: d806 843d 4ecc 183d 15aa 6a3d aaa5 28bd
00000040: e61e 873c 5b16 1f3d 45fd b13c 924e e2b7
00000050: 02ac 713d d1e3 063d 75c3 833c 3b03 ffbb
00000060: ce6b a43d 484c 253d 98aa 37bc ca50 b1bc
00000070: a33f 6d3d 378f b53d e78b 063c e052 393c
00000080: 6ae5 6cbd 22af 16bd b1d5 59bd 91d4 9fbe
00000090: 5380 a0bb cb45 c2bd c0d3 f93d 90c3 2a3c
000000a0: e31f 0b3d 111f a23d 0109 1f3c 01bc 94be
000000b0: 39e4 d5bd 38e2 83bd e3ea e7bd 0c28 62be
000000c0: 8730 39bc 0bcb b2bc 5b38 ffbb a7af 663d
000000d0: b2ae 69bc 03da 10bd 6c56 21bd 5e24 e43b
000000e0: 1380 823c 98be 00bd 0378 fcbc ec18 173c
000000f0: 07ee 703c bd2b 553d 2358 09bd b417 d4bc
00000100: b88f 42bd 6436 aebd 7c11 97bd ef70 91bd
00000110: 390f 22bd dc00 d9bd c83e 8cbd affb 09bd
00000120: 1a36 25bd 62b1 febd 1a67 e8bd 3fd7 dcbd
00000130: fec0 bd3b 7261 7bbd 9fbf b7bd 6c07 bbbd
00000140: 433c 93be 0c60 273d 66d5 0abe 43e0 5fbd
00000150: e56f e93c 6c0e 67bd d30b 2e3c 77d1 bbbd
00000160: b7fc 39be dd34 163d f496 14bd f084 d93c
00000170: 2066 8ebe 72a1 5bbe 66cc c8bc 54c9 95be
00000180: c40e 1e3d 382f 08be 6623 a63d 0c59 0e3c
00000190: 456c 813c d492 3b3d 7dc2 ed3c 9f37 a6bb
000001a0: 36dc 583d 40b8 6d3d 84b7 523b 104a 7e3d
000001b0: bd00 b13d f167 f43b bf78 97bb ead3 1bbd
000001c0: a6a3 783d 42b0 ce3c f4b0 52bc 9fa0 003c
000001d0: 410f 4f3d fc12 04bc 27b7 2d3d 3563 0b3d
000001e0: 85cb 163d d6e5 51bb 8c98 063c 59b3 5f3c
000001f0: 9115 84bd 075a 833d 3ec9 2b3c 4bee 113d
00000200: 0ec9 023d 4b55 ff3c 8be9 6dbd f0e8 aabc
00000210: 15c6 823c 25e2 babc 68ea a5bc 1b50 4ebd
00000220: e5c3 a03d c932 703d f422 0f3c 4a2d fabc
00000230: b4e8 a03c d7a0 ba3d 3c19 a63d b803 f73a
00000240: 3228 783c de34 73bc bfb1 2bbd e726 62bd
00000250: e9f5 443d ff29 6f3c 541e 28bc a1f3 07bd
00000260: c7d6 b03d 3730 dd3c 4cdb 2f3b 440a 96bc
00000270: 2979 303d b33d 393d 148e 313d a187 48bc
00000280: 726e a93c 3cac fd3c d1c3 81bc dc74 d7bb
00000290: 0485 8ebc 5600 1f3c fd18 21bd af4b 94bb
000002a0: 41f4 35bc 130b 873c 991c babc 3751 5e3b
000002b0: 3589 a83c 2be6 a63d aea1 093c 51d6 823d
000002c0: f5d4 b93b 9d78 b73d 770d 1f3e 953a 2f3e
000002d0: 6c39 0bbe 13a4 61bd 7b19 3dbe c403 e0bd
000002e0: c525 32bc 1b91 dbbd 2a58 a83d 40f3 853d
000002f0: 016d 87be de1b 31bd 4de0 4abd 4a4f 333d
00000300: 727a 8bbe ef4b 38bd f955 29bd eab0 a5bd
00000310: 4aad e53d 515c 293d 266a 233e 28d5 083e
00000320: 8df4 083e fe6e 193e 6928 bc3d 4385 c63d
00000330: e702 8f3d 0265 ba3d 6fb3 b5bc aa69 483e
00000340: b26c dd3c 83f4 553d aba6 073d ac34 be3d
00000350: 65fc 733c b458 4f3d acca f13c 38f9 203c
00000360: 5745 20bc 93b7 6c3d ce1b 8f3d 90f1 823d
00000370: bd8d 11bd be65 233c 0298 2d3d 9b14 863d
00000380: 309f c03d 238b a33d 9de3 25bb 0106 cd3c
00000390: 2a94 283e ead3 e33c 2963 fe3c 587e 963d
000003a0: 21a3 473d d3a9 263d 9e7b 66bc cf90 3b3d
000003b0: 4835 41bb f8fd 38b9 909c aebd 369c 343d
000003c0: 0f33 043d 9630 27be fb5d da3c 2aa5 b63d
000003d0: 67a8 113d 564a f73d cf7f 103c ced9 de3d
000003e0: 9b79 813d ffe2 8e3d 5982 3bbc 108a 033d
000003f0: 863c 843d 5a6d 83bd 82cb ecbc ef96 0dbd

deconv3.0.bias f4 [16]
0.043708425 0.046116877 -0.0772516 0.036310762 0.121234305 0.12148264 -0.010776523 0.032899976
-0.011413655 0.014763906 0.040152982 -0.032778125 0.08236581 0.070334464 0.06008479 0.0073876265
00000000: 9b07 333d 0de5 3c3d 1636 9ebd 98ba 143d
00000010: b149 f83d e4cb f83d 0390 30bc 20c2 063d
00000020: 5700 3bbc 4fe4 713c 7477 243d 5b42 06bd
00000030: 68af a83d 840b 903d 781b 763d e713 f23b

deconv2.0.weight f4 [16, 8, 4, 4]
0.0019651996 -0.012449727 -0.016856473 0.028457103 -0.14583358 -0.116023436 -0.09902346 -0.067867175
-0.027944205 0.010994932 -0.031351134 0.0109960325 0.054309152 0.048262056 0.08507935 0.10494721
-0.03394719 0.0021127926 -0.00049003493 -0.0071227076 -0.07572315 -0.003627742 0.022644505 -0.037944756
-0.067688085 -0.107700735 0.012532984 -0.06666938 0.0034043847 -0.027337993 0.09745521 0.02631029
-0.106457576 -0.10132198 0.016859762 0.12999311 0.0105597135 0.021595297 0.017709041 -0.017596332
-0.066575885 -0.072283484 -0.0115148425 -0.044540424 -0.048482373 0.12309512 -0.017103339 0.12972946
-0.008887553 -0.0067908685 -0.00730274 -0.013784717 0.015614782 0.06023313 0.009355966 0.004087985
-0.017875621 -0.008490296 -0.027538585 -0.025850005 0.060741607 0.07336216 0.068084516 0.03713657
-0.02014346 -0.019834705 -0.035519775 -0.018273281 0.043899152 0.02749301 -0.0072178585 0.00406107
0.033617843 0.016746072 0.021458564 -0.02024206 0.0007128725 -0.006923357 0.005929453 -0.0322389
0.021361398 0.0056902347 -0.0024861014 0.009720515 0.036454 0.039615024 0.020998055 0.04445903
0.063195035 0.07924601 0.058345042 0.0827205 0.10704239 0.123955324 0.10250659 0.09591513
0.033657633 0.02814335 0.03059076 0.010210563 -0.0038556985 0.0069974447 -0.0020926988 -0.013055228
0.12092093 0.16554393 0.16380164 0.11798928 0.08328598 0.0990942 0.10045174 0.09124875
0.015611151 0.051212423 0.048795767 0.035803154 0.010674451 0.021094881 0.046283863 0.034712844
0.07526008 0.06450705 0.11691665 0.087624 0.018139387 0.030746631 0.056715354 0.10003987
0.07293101 0.09380503 0.08206951 0.0046196566 0.015947018 0.07015983 0.04268627 -0.024110913
0.016501922 0.043504912 0.058378458 0.019272534 0.004984506 0.008344894 -0.025019385 -0.01149616
0.07456635 0.063914575 0.04211248 -0.011249219 0.06947591 0.027819837 -0.015622526 0.03367554
0.04836887 0.02634846 0.0037635204 -0.010096465 0.00827133 -0.050719466 -0.029888203 -0.034956574
-0.06417643 0.057037465 -0.02824661 -0.040495306 0.0055761775 0.01757943 -0.0026999165 -0.03879864
0.054041978 -0.062255833 -0.0044211666 0.0035834413 -0.04922404 -0.012171537 0.031353094 0.0664055
0.06551637 0.08969844 0.051184356 -0.013316191 0.017501166 0.03310412 -0.0009428612 0.018914295
0.050618872 0.077254616 0.007347179 0.033639055 0.05169257 0.06481154 -0.0061316793 -0.013199326
0.06820844 0.029471375 -0.0051627713 0.042354804 0.08147051 0.047578067 -0.019455383 0.011428047
0.060430255 0.010797364 0.0021639597 0.015676951 0.023048699 -0.024960492 0.020409614 0.01306868
0.027125295 0.034680754 0.015263783 -0.0053452263 0.063012876 0.016388105 -0.009666256 0.04779083
0.062427595 0.061685745 0.013498967 0.009780626 0.026884114 0.04788767 0.0082748 -0.030455964
0.048247352 0.023929717 0.0063598417 0.023582827 0.016418219 0.076031886 0.05549046 0.0028002139
0.0335256 0.07024583 0.051437218 0.04800165 0.0034940569 0.008241182 -0.030346472 0.0012361975
0.104990795 0.064801045 0.004286324 0.04907961 0.058708206 0.08061274 0.0058359494 -0.007165581
0.07216469 0.011973195 0.0011039188 -0.010861096 0.029885856 -0.031856395 -0.014535049 -0.018292284
00000000: 94ca 003b f1f9 4bbc 9616 8abc df1e e93c
00000010: 6655 15be b29d edbd d0cc cabd f2fd 8abd
00000020: 3feb e4bc 1624 343c 0c6a 00bd b428 343c
00000030: 4673 5e3d 6fae 453d 153e ae3d 90ee d63d
00000040: 350c 0bbd c776 0a3b b075 00ba 9a65 e9bb
00000050: bd14 9bbd 69bf 6dbb f880 b93c f66b 1bbd
00000060: 0da0 8abd 3492 dcbd 2557 4d3c f589 88bd
00000070: 191c 5f3b edf3 dfbc 9996 c73d ad88 d73c
00000080: 6e06 dabd e681 cfbd 7c1d 8a3c ea1c 053e
00000090: a602 2d3c 9fe8 b03c 8d12 913c 2f26 90bc
000000a0: f058 88bd 5d09 94bd c0a8 3cbc 0570 36bd
000000b0: 7495 46bd 4b19 fc3d 4d1c 8cbc cdd7 043e
000000c0: 199d 11bc ef85 debb d34b efbb 4bd9 61bc
000000d0: 25d5 7f3c 04b7 763d c449 193c 81f4 853b
000000e0: e56f 92bc e21a 0bbc 9998 e1bc 64c3 d3bc
000000f0: 31cc 783d e63e 963d e56f 8b3d 841c 183d
00000100: e603 a5bc 647c a2bc 2f7d 11bd d9b1 95bc
00000110: 99cf 333d 0539 e13c c983 ecbb b912 853b
00000120: ddb2 093d 0f2f 893c dfc9 af3c add2 a5bc
00000130: 10e0 3a3a 54dd e2bb db4b c23b f00c 04bd
00000140: 19fe ae3c 2675 ba3b dced 22bb cc42 1f3c
00000150: ca50 153d 5d43 223d 1d04 ac3c ac1a 363d
00000160: 666c 813d bb4b a23d 36fb 6e3d 5e69 a93d
00000170: 0a39 db3d 4adc fd3d faee d13d 276f c43d
00000180: 96dc 093d e28c e63c 7999 fa3c 354a 273c
00000190: e3af 7cbb d24a e53b a925 09bb 98e5 55bc
000001a0: 64a5 f73d 5984 293e 9ebb 273e 5da4 f13d
000001b0: d791 aa3d e6f1 ca3d a4b9 cd3d a0e0 ba3d
000001c0: eac5 7f3c 1ec4 513d 12de 473d 54a6 123d
000001d0: e4e3 2e3c 2ccf ac3c 2694 3d3d 0e2f 0e3d
000001e0: f521 9a3d 461c 843d ff71 ef3d 3674 b33d
000001f0: 0d99 943c 5ce0 fb3c 5c4e 683d b4e1 cc3d
00000200: da5c 953d da1c c03d 0f14 a83d 7d60 973b
00000210: 52a3 823c f5af 8f3d ccd7 2e3d 4084 c5bc
00000220: 0a2f 873c 3532 323d 401e 6f3d 6fe1 9d3c
00000230: 1155 a33b 06b9 083c 74f5 ccbc 645a 3cbc
00000240: 3eb6 983d a5e5 823d 237e 2c3d a54e 38bc
00000250: 6349 8e3d 6de6 e33c a0f5 7fbc 5def 093d
00000260: 701e 463d bad8 d73c 65a5 763b a56b 25bc
00000270: 7984 073c 37bf 4fbd 1bd8 f4bc a02e 0fbd
00000280: ef6e 83bd 1ea0 693d 6f65 e7bc 68de 25bd
00000290: 5eb8 b63b bd02 903c 15f1 30bb 53eb 1ebd
000002a0: 1f5b 5d3d f9ff 7ebd 6fdf 90bb 2bd8 6a3b
000002b0: 269f 49bd 206b 47bc 1a6c 003d 9bff 873d
000002c0: 722d 863d d1b3 b73d b0a6 513d 272c 5abc
000002d0: 9b5e 8f3c 3098 073d 582a 77ba 27f2 9a3c
000002e0: bc55 4f3d ab37 9e3d 9bc0 f03b 1bc9 093d
000002f0: 97bb 533d eabb 843d 41ec c8bb fc41 58bc
00000300: deb0 8b3d f46d f13c 772c a9bb 3b7c 2d3d
00000310: 03da a63d 38e1 423d e560 9fbc b43c 3b3c
00000320: b785 773d 6de7 303c 38d1 0d3b f36c 803c
00000330: a0d0 bc3c f279 ccbc 1032 a73c 041e 563c
00000340: de35 de3c 680d 0e3d f214 7a3c 0227 afbb
00000350: e50c 813d 5940 863c 375f 1ebc 51c0 433d
00000360: 14b4 7f3d 31aa 7c3d c52a 5d3c eb3e 203c
00000370: 133c dc3c dd25 443d 0793 073c c97e f9bc
00000380: 049f 453d 4108 c43c 3866 d03b c630 c13c
00000390: 807f 863c 9bb6 9b3d f749 633d cb83 373b
000003a0: 2452 093d 0cdd 8f3d d5af 523d 619d 443d
000003b0: 8cfc 643b 0606 073c 2a99 f8bc e807 a23a
000003c0: 6a05 d73d 69b6 843d 4b74 8c3b b307 493d
000003d0: 0478 703d 4b18 a53d 7e3b bf3b 40cd eabb
000003e0: 15cb 933d 382b 443c 5eb1 903a bdf2 31bc
000003f0: 2fd3 f43c da7b 02bd 6a24 6ebc b3d9 95bc

deconv2.0.bias f4 [8]
0.0407615 0.07426693 -0.0585257 0.04852562 0.040243965 0.0572313 0.034915302 0.058181845
00000000: 88f5 263d 4319 983d a5b8 6fbd cdc2 463d
00000010: dbd6 243d 5e6b 6a3d 5903 0f3d 1650 6e3d
